models/2024-03-18_09h22m21s_tmin.pt (torch, 45372 bytes, 5 tensors)

lstm.weight_ih_l0 f4 [200, 1]
00000000: 5246 02c0 5174 f0bf 2aba 483f beb7 c1bf
00000010: 4136 13c0 1824 d7bf c5d5 01c0 330c 01c0
00000020: dea0 52c0 b343 fcbf 2d7b 0ac0 29fe 0fc0
00000030: 99f6 0cc0 e478 f5bf f5c4 f3bf d7fe 56c0
00000040: cce1 03c0 50cc 05c0 98e5 03c0 e7fb 8ec0
00000050: e73a b4bf 1544 13c0 a722 cfbf e10a 0bc0
00000060: f17f 923e 3cb6 08c0 4fef 11c0 f5e0 0cc0
00000070: 90e6 f8bf f213 0ac0 93fa f4bf 1e9e 08c0
00000080: 6618 b0bf 89c9 fabf 688c 47c0 741d d2bf
00000090: 67f1 e6bd f459 13c0 2221 fdbf f91c 01c0
000000a0: 3c66 4ec0 4d26 07c0 37a3 ffbf 440d 09c0
000000b0: 84b3 f7bf 268d 0bc0 ec30 c0bf 4cf2 0cc0
000000c0: 1469 eebf f911 dd40 7b02 e9bd 0cf7 0a3e
000000d0: c419 76bd 2eaf 0bbe 77d7 203d eecd 2cbd
000000e0: 3456 afbd 6125 62ba 9e25 9a3c 736d 823d
000000f0: 4171 36bd 49b9 afbc 7f1d 643d 12bb bcbd
00000100: 4ccd d23d 7e2b be3c 1bdf b23c 2572 e33c
00000110: e2a2 213d 0597 f9bc 8f22 58bd e68e 2b3c
00000120: e559 e9bd b061 0c3e a2a4 c23d 6036 3bbd
00000130: f98d f5bd ff37 b53d f390 573d b53d 08bd
00000140: c8cb 95bd 43d2 09bd e47b d3bd 392c 89bd
00000150: b40c f53d ea88 23bd 63fc d6bb 5bd3 073e
00000160: 3837 ffbc a2f0 f23d 64a3 bf3c a674 88bd
00000170: 2880 c13c 0687 b53d e6c0 04be 77eb dc3d
00000180: f8af be3d 73e7 483d 62ec 4f3d 2909 c83d
00000190: 189b 4103 e867 5d83 9cf2 7640 94eb b736
000001a0: c86d 6003 4014 4d02 d0d9 4303 80e9 0202
000001b0: 16ab a440 7882 2d83 c026 8201 6020 aa02
000001c0: e046 3483 4093 b382 20de b702 3fcd 6c40
000001d0: a05b b982 28dd 6a83 b0d2 bb02 d0c8 d540
000001e0: 085b 3d83 2823 6183 4277 2b34 40a4 5902
000001f0: 8372 4ec0 8095 2383 4858 8403 28a4 5d83
00000200: f0e1 0403 a052 0b82 809c 4a81 a004 0d83
00000210: 2e20 8937 40c9 a782 3172 af40 7997 8931
00000220: 7e3e 3040 6881 5403 a026 2a03 2036 9802
00000230: 9567 ad40 a051 b402 c052 7b02 f3ae 9131
00000240: a033 1302 a8d7 4b83 a01b a082 0095 2b83
00000250: e083 3a83 8da0 ef40 d5a8 0dc0 e9e6 f2bf
00000260: 18d7 6a3e 20f8 bebf d92f 13c0 5b16 edbf
00000270: b0c7 f8bf 39f0 febf 6374 4fc0 50c9 03c0
00000280: f843 13c0 4b6e 0ac0 5c38 07c0 5462 edbf
00000290: 3125 08c0 b3e4 4bc0 b0ed 02c0 4a71 fdbf
000002a0: 0c6e f4bf d36b 39c0 717e bbbf b205 10c0
000002b0: 48be d8bf a503 0fc0 8399 a73d 2fa7 f6bf
000002c0: 6fa9 12c0 cba4 19c0 d8fc f3bf cec9 05c0
000002d0: 74e3 febf 2648 09c0 f234 a4bf fb02 07c0
000002e0: b5fa 4cc0 f751 cebf c8a5 1fbe f14a 0ac0
000002f0: 4a0a fcbf 245b 08c0 8713 4bc0 29ad 10c0
00000300: 4f3e 02c0 bf05 fdbf bbce f2bf b0c5 02c0
00000310: cb97 cbbf fae3 0cc0 9ce7 f9bf ad87 ab40
-2.035542 -1.8785497 0.78409064 -1.5134199 -2.3001864 -1.680789 -2.0286725 -2.0163696
-3.2910686 -1.970816 -2.163768 -2.2498877 -2.2025511 -1.9177518 -1.9044482 -3.3593042
-2.0606565 -2.0905952 -2.0608883 -4.46825 -1.4080476 -2.3010304 -1.618245 -2.172539
0.28613237 -2.1361227 -2.2802312 -2.2012303 -1.9445362 -2.1574674 -1.9138969 -2.1346507
-1.3757446 -1.9592754 -3.1179447 -1.6415238 -0.112765126 -2.3023653 -1.9775736 -2.0173934
-3.22499 -2.1117127 -1.9971684 -2.1414347 -1.9351659 -2.18049 -1.501493 -2.2022886
-1.8625817 6.908444 -0.11377426 0.13570803 -0.060083166 -0.13641044 0.039267983 -0.042188577
-0.08561364 -0.0008626786 0.018816765 0.06368532 -0.0445416 -0.021450656 0.055692192 -0.09215368
0.102930635 0.023214098 0.0218349 0.02776439 0.039461978 -0.03046752 -0.052767333 0.010471081
-0.11394099 0.1370914 0.095040575 -0.045706153 -0.1198997 0.08848571 0.05262847 -0.033261973
-0.07314259 -0.033647787 -0.10326365 -0.06697888 0.119653136 -0.039925493 -0.0065608486 0.1326422
-0.03115426 0.11862303 0.02339334 -0.06662874 0.02362068 0.08863644 -0.1296421 0.10787099
0.09310907 0.049048852 0.05076254 0.09767372 5.689564e-37 -6.506534e-37 3.8585577 5.48125e-06
6.5953706e-37 1.5066833e-37 5.7555386e-37 9.617903e-38 5.1458845 -5.09899e-37 4.781006e-38 2.4997837e-37
-5.2978606e-37 -2.6386203e-37 2.7016927e-37 3.7000272 -2.7235897e-37 -6.9020294e-37 2.759811e-37 6.6807632
-5.5646607e-37 -6.6161915e-37 1.5969002e-07 1.598978e-37 -3.2257392 -4.8073012e-37 7.778531e-37 -6.5134505e-37
3.9050677e-37 -1.0235819e-37 -3.7213824e-38 -4.1441485e-37 1.6346658e-05 -2.4653956e-37 5.4826894 4.004445e-09
2.7538142 6.244975e-37 5.000285e-37 2.236546e-37 5.4188943 2.6495473e-37 1.8464316e-37 4.239945e-09
1.081467e-37 -5.99039e-37 -2.3525743e-37 -5.0423427e-37 -5.4811872e-37 7.4883485 -2.2134297 -1.8976718
0.22933614 -1.4919472 -2.2997954 -1.8522447 -1.943594 -1.991706 -3.2414787 -2.0591621
-2.3010235 -2.1629817 -2.112815 -1.8545632 -2.12727 -3.1858337 -2.0457573 -1.9800198
-1.9096084 -2.897206 -1.4647962 -2.2503476 -1.6933069 -2.2345974 0.08183577 -1.926977
-2.2915914 -2.4006832 -1.9061537 -2.0904422 -1.9913163 -2.1450286 -1.2828658 -2.109557
-3.202802 -1.6118764 -0.15590584 -2.160824 -1.969064 -2.1305628 -3.1730669 -2.2605689
-2.035053 -1.9767379 -1.8969339 -2.043316 -1.5905699 -2.2014146 -1.9523807 5.360312

lstm.weight_hh_l0 f4 [200, 50]
00000000: d1b0 353d 5d61 74bd 642d ca3a e0c0 41bd
00000010: 0ac1 d9bd 26a9 eebd 1ff4 573d 1f01 fa3c
00000020: 0d93 e43d 8fd2 09be 716b 0d3e 2c38 8a3d
00000030: db8d 6d3d 6d0e edbd 0e72 7bbc c581 04be
00000040: 5c5b 0bbd 2c1b 18bc c601 bd3d 7477 febc
00000050: 2d9d 75bd 8d12 993c 0396 823d 48e8 a63d
00000060: 51aa ecbd 23e1 f5bd 6f35 57bd d9bb 663d
00000070: baea 563d d345 1c3d 4a13 edbd 3c62 833d
00000080: 13b9 d93d 68dd 883d 4ace c53d d6a6 fe3d
00000090: d237 55bd 722a 8bbb 29e1 8fbc 9d9b a7bd
000000a0: 9f77 7dbd d888 04be e5de e9bd e49a babd
000000b0: 28dc e73d 2751 363d 9898 953d 1f33 4fbd
000000c0: 6abd b93d 456b e13c 5dd5 e2bd 9b11 5c3d
000000d0: 2a52 3bbd 6924 f6bb 5976 d5ba d310 c73d
000000e0: 4a77 6e3d 60b2 24bd 17f7 a3bd 5bba f23c
000000f0: b04a 44bb 5ada 5cbc 7097 973d 72b5 ee3b
00000100: a1d4 0bbd c6a3 d03d ea30 823c ef4b dbbc
00000110: 3a31 9fbd 3add 01be d91f cd3d 9f6b ee3c
00000120: 8256 ffbd b04e fe3d 1b06 d1bd b3c3 af3d
00000130: b041 c5bd e912 533c 25f2 bdbc dbd1 07be
00000140: ed2a 5dbd 8509 173c a04a d13d 90c3 8bbd
00000150: 87aa 36bc d530 9b3d 8f80 9b3b edb4 5ebd
00000160: cac7 1abd 2130 433a 4cd7 96bd 9834 b7bc
00000170: 74ad d93d 4295 073d 815f 8c3d 799c db3d
00000180: a00e 2f3d 9e73 0bbe a57a e8bd db93 c5bd
00000190: 9dbb 563b c99b 2dbc 1788 a23d 2a68 863d
000001a0: 7ca6 f23d b168 0c3e 56be 233d 3d86 b4b9
000001b0: f756 62bd 3779 4f3d 4433 abbd ec10 103d
000001c0: 842c 88bd af03 083e 17bb bbbd 3bd4 c13c
000001d0: 65aa e3bd 9a85 b43c 89f4 003e 51ec 1f3d
000001e0: 08e4 db3c 0e33 0bbd eb52 553d f5f7 a23d
000001f0: c9be f8bc 6cb1 cf3d 6dc6 bfbb b8b8 103e
00000200: fd4a f0bd 8a6c dbbd 260b c1bd 46f4 b5bc
00000210: f56d 5fbd 62e8 d73d ba1f bfbc 925d f53c
00000220: ea8a d43c c3d6 92bd 3cb2 03bd ffff e83d
00000230: b725 03bc 2b46 c93b 179c bfbd 9286 45bd
00000240: 5ad0 f73d 5d17 413c 4d39 03bc 9c7a dabd
00000250: d97c 053c e8ff 94bd 2aed ad3d 0133 e83d
00000260: 1f3f b43d 8ef9 37bb a3ce 403d dedf 25bd
00000270: 9cd9 65bc c89d f1bd 5932 cd3d 9304 ddbd
00000280: 0b04 e93d 8ba3 bc3d f194 c73d d53c e83b
00000290: e821 373d 2479 0b3e 0888 d63d d878 dbbd
000002a0: 21d9 e23c e102 ae3c b989 0d3e f887 59bd
000002b0: 1b38 d3bc 95cb 733d 3837 6d3d 6fb3 ea3d
000002c0: 584f e4bd 3221 273c bcea cd3d 2454 ca3d
000002d0: 94cc 1e3d f9f5 bebc 6c05 9cbc 8062 043b
000002e0: 7222 00be 8cc8 883d 4799 8bbd 4ed1 073e
000002f0: 5d8c f7bc 6c05 88bd 2ac7 43bd 146a 3f3c
00000300: 7ab5 c5bd f9c9 f2bd 3a0a 64bd ef14 b43d
00000310: 8744 c33d d8eb 52bd ddb1 57bd 7f42 043e
00000320: 1990 03be fe03 04be 2513 b9bd 9fcc 103e
00000330: 5975 d33d 78e8 43bd 472e f2bc 844e 823d
00000340: 5f37 c73c 357f 09be 2ba4 f43a 9126 b33d
00000350: 1506 b9bd 92c0 dcbd 4f8a c63c 6676 f4bd
00000360: 3af4 ebbd 873d 01bd e83f f83d 102b 0fbe
00000370: 68f0 a3bd c4bc 5d3c e7f7 cebd 06d4 91bd
00000380: 5f79 023e b3d0 53bc 9e0f 903d 96e1 b73d
00000390: ace5 89bc 7228 d8bc 2eac 393d c8c4 f4bd
000003a0: 83a1 a43d 924d 8abd 542f 073e fe6b c23d
000003b0: bef5 06be 45c3 e0bd 8b8a 053e cf58 9dbd
000003c0: cce1 a13d 5890 003e f355 f73d 00bb b13d
000003d0: 56ba bb3d f938 063e 438a 093e 4d77 08be
000003e0: ab31 9fbd 4eed 65bd 5f1f 103e 85d4 b8bd
000003f0: f018 693d 44eb bf3c fbe5 b63d f091 64bd
0.04435808 -0.059663165 0.0015424904 -0.04730308 -0.106325224 -0.11653356 0.052723046 0.030518113
0.1116086 -0.13459228 0.13810517 0.06748995 0.057996612 -0.11575017 -0.015347017 -0.12940128
-0.034022674 -0.009283822 0.09228854 -0.031062819 -0.059964348 0.018685604 0.06376269 0.08149773
-0.11555923 -0.12005832 -0.052541193 0.05633149 0.052469946 0.038152527 -0.11575945 0.06415221
0.10631003 0.06682855 0.09658487 0.12434165 -0.052055188 -0.0042470032 -0.01756342 -0.08183978
-0.061881658 -0.12942827 -0.11419467 -0.09111574 0.11321288 0.044510987 0.073044956 -0.050585862
0.09069331 0.02751697 -0.11075852 0.053727727 -0.045732655 -0.0075116646 -0.0016285881 0.09720006
0.05821923 -0.040209174 -0.08006113 0.029629877 -0.0029951744 -0.013479793 0.07401931 0.0072848136
-0.034138326 0.10187487 0.015892465 -0.026769606 -0.07773061 -0.12682047 0.1001584 0.029104052
-0.12467672 0.12417352 -0.10206243 0.085822485 -0.096316695 0.0128829265 -0.023186753 -0.13263647
-0.053996015 0.009218578 0.10219312 -0.0682441 -0.011149055 0.07577673 0.00474555 -0.054371763
-0.03778819 0.00074458314 -0.07365283 -0.022363946 0.10628787 0.033101328 0.068541534 0.10723204
0.042738557 -0.13618323 -0.113515176 -0.09647342 0.0032765635 -0.010596224 0.07936113 0.065628365
0.118481606 0.13711812 0.03997644 -0.0003443229 -0.055258717 0.05065271 -0.083593875 0.035172388
-0.06649116 0.13282655 -0.09166544 0.02366077 -0.111164846 0.022036362 0.12593283 0.03904373
0.026842132 -0.033984236 0.05208103 0.0795745 -0.030364411 0.101412624 -0.0058525116 0.14132965
-0.11733053 -0.107140616 -0.094259545 -0.022211205 -0.054548223 0.105423704 -0.023330558 0.029951844
0.025945146 -0.07169869 -0.0321524 0.113769524 -0.008004597 0.006142398 -0.09355944 -0.04822404
0.12100287 0.011785355 -0.008009267 -0.10667917 0.008147442 -0.07275373 0.08492501 0.11337853
0.08801102 -0.002807233 0.047072064 -0.0404967 -0.014028933 -0.117976725 0.10019369 -0.10791888
0.11377724 0.09210881 0.09745205 0.00708733 0.04471007 0.1362043 0.10475165 -0.107164085
0.027691426 0.021241607 0.13822068 -0.053108186 -0.02578359 0.059520323 0.05791399 0.114600055
-0.11147946 0.0102007855 0.10054538 0.0987933 0.03876932 -0.023310648 -0.019045554 0.0020200312
-0.1251314 0.06678876 -0.06816345 0.13263437 -0.030218298 -0.06641659 -0.04779736 0.011683006
-0.096537545 -0.118549295 -0.055673815 0.08793055 0.09534555 -0.05149445 -0.052659858 0.12915991
-0.12847938 -0.12892148 -0.09036855 0.14140557 0.10325117 -0.04782912 -0.029563082 0.06362632
0.024318395 -0.13427432 0.0018664649 0.0874759 -0.09034363 -0.10778917 0.024235873 -0.11936645
-0.11521192 -0.031552818 0.12121564 -0.13981271 -0.08004838 0.013533775 -0.10105877 -0.071205184
0.12741612 -0.012928176 0.07034229 0.08978574 -0.016833149 -0.026386473 0.04533022 -0.119515955
0.080386184 -0.067530766 0.13201648 0.09493254 -0.1317968 -0.10974745 0.13041131 -0.076829545
0.079043955 0.12555063 0.120769404 0.086782455 0.091664 0.13107671 0.13431649 -0.1332676
-0.07773145 -0.056134515 0.14074467 -0.0902491 0.056908548 0.023427613 0.08930584 -0.05580324

lstm.bias_ih_l0 f4 [200]
00000000: 51d2 14c0 939f 20c0 44fb 84c0 294f 4ec0
00000010: 39fc 18c0 bb38 15c0 be66 17c0 828a 10c0
00000020: a781 46c0 3698 14c0 fc4d 17c0 582c 14c0
00000030: 00c0 17c0 313b 10c0 523d 15c0 5873 4bc0
00000040: 767c 14c0 e4e1 1ec0 20ec 17c0 9984 1b3f
00000050: 084e 23c0 f509 17c0 eaa8 39c0 684b 20c0
00000060: ad0e 89c0 027b 16c0 ea4a 1bc0 6b13 15c0
00000070: 4971 1ac0 1390 1ec0 3e3b 13c0 d2c8 12c0
00000080: 43ce 51c0 435a 16c0 a7d5 4ac0 a931 36c0
00000090: 739b 86c0 1dce 19c0 9421 18c0 c0f1 15c0
000000a0: 3572 36c0 dfc6 19c0 632c 14c0 3760 1fc0
000000b0: c7d5 1bc0 08d9 1bc0 6240 15c0 ce14 1bc0
000000c0: c230 18c0 407c b5bf 7060 fe3d b9de a2bd
000000d0: 7a5b 0a3c 5077 473d 87a5 04be 31bf c6bd
000000e0: 76d2 043e 62ee ef3d 54ea cabb dcbe 6dbd
000000f0: 1784 5f3d 3072 103e dacc 0fbe 7bbb 203d
00000100: 79ae ab3c eebc 243d 2edc dcbd 766d 2abd
00000110: 283d cf3d 8e51 783d 4ed7 0e3e efc1 76bd
00000120: ea75 f3bd c851 b43d 3fe4 eebd 213e 62bc
00000130: d49d f73d 7b47 833c 9c84 c2bd e595 043e
00000140: fea2 c7bb 1d89 733c e207 8dbb 7942 923d
00000150: c220 943d cc72 cfbd 3047 0fbe c4e9 e63d
00000160: 6585 853d 63b0 d83c 0b6a 76bd be20 8abd
00000170: 4b8b 29bd ecc0 fbbd 7304 08be e262 c1bc
00000180: f35e 333c af34 e9bd baf3 94bb 7d9f 793d
00000190: 15a1 e93c 09aa 7f3d 815f 7abf 4435 21bd
000001a0: 69d5 f3bb 064b 113d 5e53 01bd 0680 d23d
000001b0: c0b9 233e 2709 a7bc fdce eb39 8c45 f93c
000001c0: 3ecb 50bd 1177 69bc 35cf 8dbc 38f4 db3d
000001d0: 1caa 9f3b 99dc 07bd 0c44 aabd acef 3540
000001e0: 5d05 ae3c 40bf a1bd 3e12 b4bd 58c3 a13c
000001f0: f7d6 533f 5e4f d43c 093a f9bd af0f 3a3d
00000200: 6872 5cbd 9c46 07bd 5803 2f3d 3e4b 1a3d
00000210: 92d3 a23d e877 f73d 75f7 6d3e b699 5fbc
00000220: a954 5bbf 6297 6dbc c699 1abd b6bb e8bc
00000230: 68c1 4d3e fb27 68bc 724d 5e3d 6c95 fa3c
00000240: 2203 6b3d 00ea 793d e8d9 843d 8aa4 97bd
00000250: e3f0 013d 6aa6 8fbf 05b6 15c0 e094 11c0
00000260: f1b1 99c0 7d9f 4bc0 5f0e 1ec0 7423 16c0
00000270: f2b9 15c0 2569 1ac0 dee0 3fc0 3537 14c0
00000280: 2850 1ec0 a9e1 18c0 ae08 10c0 39f0 19c0
00000290: 74fd 1cc0 11cf 4ec0 2470 17c0 dd31 17c0
000002a0: 5fc7 17c0 6d4e 24bf 571a 24c0 528a 1ac0
000002b0: d2b5 3fc0 7105 13c0 5c44 8cc0 928e 21c0
000002c0: 8d9e 17c0 bfc5 14c0 089e 14c0 1a5e 11c0
000002d0: 1808 1bc0 01c6 16c0 b05e 53c0 23f6 13c0
000002e0: b9dd 41c0 8700 35c0 8eb5 85c0 eea9 19c0
000002f0: a310 18c0 9a86 1ac0 6ad5 47c0 33f7 12c0
00000300: cfbb 1bc0 33d3 16c0 924d 14c0 e918 14c0
00000310: 0f78 1cc0 66eb 1ac0 a902 1ec0 a539 15c0
-2.3253367 -2.5097396 -4.155672 -3.2235816 -2.3903944 -2.3315876 -2.365646 -2.2584538
-3.1016634 -2.3217902 -2.3641348 -2.3152065 -2.3710938 -2.2536128 -2.3318677 -3.178915
-2.3200965 -2.4825373 -2.373787 0.607492 -2.5516376 -2.3599827 -2.9009347 -2.5046024
-4.2830415 -2.3512578 -2.4264474 -2.3293102 -2.4131644 -2.4775436 -2.3004909 -2.293507
-3.2782142 -2.3492591 -3.1692903 -2.846781 -4.2064757 -2.4032052 -2.3770494 -2.3428802
-2.8507206 -2.4027631 -2.3152092 -2.4902475 -2.434923 -2.4351215 -2.3320546 -2.4231448
-2.377976 -1.4178543 0.12420738 -0.07952637 0.008444661 0.04869777 -0.12953769 -0.097044356
0.1297091 0.1171539 -0.006192485 -0.058043346 0.05456933 0.14106059 -0.14042988 0.039241295
0.020957218 0.04021924 -0.107841834 -0.041608296 0.101190865 0.06062465 0.1394932 -0.060243543
-0.11887725 0.08804661 -0.11664628 -0.013808758 0.1209065 0.016025295 -0.094979495 0.12947805
-0.006092428 0.014864233 -0.004303918 0.07141585 0.072328106 -0.10129318 -0.13992 0.11275056
0.065195836 0.026451295 -0.060159724 -0.06744526 -0.041392606 -0.12292656 -0.13282947 -0.023606721
0.010947931 -0.11387002 -0.004545656 0.060943116 0.028519193 0.062418018 -0.9780198 -0.03935744
-0.007441212 0.03547194 -0.031573646 0.10278325 0.15988827 -0.020390106 0.0004497691 0.03042867
-0.050975077 -0.014249579 -0.017310718 0.107399404 0.0048725735 -0.033169363 -0.0831376 2.8427534
0.021242792 -0.07897806 -0.08792542 0.019746467 0.82749885 0.025916751 -0.121692725 0.045425113
-0.053820044 -0.033026323 0.0427278 0.037669413 0.0795051 0.12083417 0.23238929 -0.013647487
-0.85676056 -0.0145014245 -0.037744306 -0.02840982 0.2009331 -0.014169688 0.054273076 0.030588828
0.057376035 0.061014175 0.06486875 -0.0740443 0.031723868 -1.122266 -2.3392346 -2.2747116
-4.8029714 -3.1816094 -2.4696271 -2.345914 -2.3394742 -2.4126675 -2.9980998 -2.3158696
-2.4736423 -2.3887732 -2.2505298 -2.405287 -2.4529696 -3.2313883 -2.3662195 -2.3624184
-2.3715436 -0.6418217 -2.5641077 -2.4146924 -2.9954724 -2.297207 -4.3833447 -2.5243268
-2.3690522 -2.3245695 -2.3221455 -2.2713685 -2.422369 -2.3558352 -3.3026543 -2.311898
-3.0291579 -2.8281572 -4.1784124 -2.4009967 -2.3760154 -2.4144654 -3.1224008 -2.2963378
-2.433338 -2.3566406 -2.3172345 -2.3140204 -2.4448278 -2.4206176 -2.4689124 -2.3316433

lstm.bias_hh_l0 f4 [200]
00000000: 337e 1ac0 8d3e 1cc0 5472 82c0 cb88 41c0
00000010: ad45 17c0 fc8f 1cc0 257c 1cc0 f8c0 12c0
00000020: a3d6 46c0 48df 22c0 3e92 17c0 a03f 1cc0
00000030: ed76 14c0 b0a0 1dc0 6bbc 17c0 b283 4fc0
00000040: e4f9 1dc0 3ce7 20c0 bebb 17c0 2f0e 1c3f
00000050: 67f3 1bc0 9d0e 20c0 581e 3cc0 6e49 18c0
00000060: fbe4 84c0 5e3d 12c0 d8dc 19c0 56ef 21c0
00000070: b7c5 1bc0 a2f3 12c0 96fc 18c0 8c36 15c0
00000080: 39db 4cc0 ccc7 1dc0 c118 3ec0 f7ae 35c0
00000090: ef78 86c0 09ea 15c0 fe4a 13c0 9edf 19c0
000000a0: d51b 46c0 b82b 19c0 33c4 1ac0 7bf1 1ec0
000000b0: 13b6 19c0 477f 17c0 525a 1ec0 84db 0cc0
000000c0: f213 17c0 ee17 95bf 683f 843d c834 a8bd
000000d0: c136 e8bc 7855 f33d 6116 dc3c fcd9 2abd
000000e0: a1b0 a93d 5c9d 20bd 9892 063e cbaa 83bd
000000f0: 4bf4 1dbd e708 b8bc fc95 2dbc 3b88 b1bc
00000100: 6d46 1c3d 58fe bb3d 6389 5ebd 9b4f aa3d
00000110: 371b 19bc 91f1 eebd 911d 20bc edc0 073e
00000120: eba6 9d3d 2ac4 c83c ad69 a3bc e620 d93d
00000130: 6d7d 14bc beef 043e 4b23 e63c 687d f73d
00000140: 7bb2 d0bd 15c8 a43c ea40 093d 3957 983d
00000150: 9e9b 4d3b 44e7 2fbd 42f2 c03d c4aa a3bc
00000160: e1ed 84bd 8975 13bc 6938 e4bd e4e2 d13c
00000170: cc33 773b 3c4a 9a3d 5f4b f43d d382 8ebc
00000180: 0a60 86bd 6955 b73d 45ee 55bb c787 b23c
00000190: 15a1 e9bc 09aa 7fbd dff0 89bf 7832 213d
000001a0: 69d5 f33b 064b 11bd 5e53 013d 0680 d2bd
000001b0: 6225 4b3e 2709 a73c fdce ebb9 8c45 f9bc
000001c0: 3ecb 503d 1177 693c 35cf 8d3c e5fe ed3d
000001d0: 1caa 9fbb 99dc 073d 0c44 aa3d 1cef 4240
000001e0: 5d05 aebc 40bf a13d 3412 b43d 58c3 a1bc
000001f0: 2764 6a3f 5e4f d4bc 093a f93d af0f 3abd
00000200: 6872 5c3d 9c46 073d 5803 2fbd 3e4b 1abd
00000210: d6d7 a2bd e877 f7bd 1eb3 7c3d b499 5f3c
00000220: 39f1 2ebf 6297 6d3c c699 1a3d b6bb e83c
00000230: 47f0 e63d fb27 683c 724d 5ebd 6d95 fabc
00000240: 2203 6bbd 00ea 79bd e8d9 84bd 8aa4 973d
00000250: e3f0 01bd c612 92bf 81f2 19c0 9625 15c0
00000260: 95d8 97c0 ed3a 4fc0 ebbc 15c0 ce63 1bc0
00000270: 1079 19c0 c63e 18c0 601a 3ec0 4223 12c0
00000280: 42f0 17c0 cb2d 19c0 a291 1ec0 011c 1ec0
00000290: 2a58 11c0 7716 4cc0 1e86 16c0 1109 14c0
000002a0: 75b7 14c0 d31c 42bf 59aa 29c0 a555 16c0
000002b0: da2f 3cc0 5ce1 16c0 eab4 90c0 cf51 10c0
000002c0: b503 22c0 097e 17c0 dce3 13c0 38d2 19c0
000002d0: 6c95 14c0 a88a 16c0 b4e1 50c0 9f06 18c0
000002e0: 6b8f 44c0 9dc2 28c0 f62e 89c0 36da 1dc0
000002f0: 1b8c 1ac0 da23 11c0 7c2f 42c0 7d34 17c0
00000300: 39b9 12c0 855d 15c0 8f02 17c0 7923 17c0
00000310: bb6a 11c0 bea1 12c0 41d2 13c0 b305 15c0
-2.4139526 -2.4413178 -4.076456 -3.0239742 -2.3636277 -2.446288 -2.4450772 -2.2930279
-3.1068504 -2.544878 -2.368301 -2.4413834 -2.3197587 -2.4629326 -2.3708751 -3.242413
-2.468377 -2.5141134 -2.3708339 0.6095914 -2.436731 -2.500892 -2.939352 -2.3794818
-4.1529517 -2.2849956 -2.4041042 -2.530233 -2.4339426 -2.2961202 -2.3904166 -2.3314543
-3.2008803 -2.4653196 -2.9702609 -2.838804 -4.2022624 -2.3424094 -2.3014522 -2.4042735
-3.0954487 -2.3932934 -2.418225 -2.4834888 -2.401738 -2.3671434 -2.4742627 -2.2008982
-2.3605924 -1.1647928 0.06457406 -0.08213192 -0.028346421 0.11881536 0.02686614 -0.041711792
0.082856424 -0.03921257 0.13141859 -0.064290605 -0.038563054 -0.022465182 -0.010594841 -0.021671405
0.0381531 0.091793716 -0.05433024 0.08315965 -0.009344867 -0.11667169 -0.009772674 0.13257189
0.07697853 0.0245076 -0.019947851 0.10601978 -0.009063107 0.1298208 0.028093 0.12084466
-0.101902924 0.020114938 0.033509172 0.074385114 0.0031373273 -0.04294516 0.09421207 -0.019978888
-0.06490684 -0.0090001905 -0.11143572 0.025620885 0.0037720082 0.0753369 0.119284384 -0.017396366
-0.06561287 0.089518376 -0.003264324 0.02179326 -0.028519193 -0.062418018 -1.0776633 0.03935477
0.007441212 -0.03547194 0.031573646 -0.10278325 0.19838479 0.020390106 -0.0004497691 -0.03042867
0.050975077 0.014249579 0.017310718 0.11620883 -0.0048725735 0.033169363 0.0831376 3.045844
-0.021242792 0.07897806 0.087925345 -0.019746467 0.9155907 -0.025916751 0.121692725 -0.045425113
0.053820044 0.033026323 -0.0427278 -0.037669413 -0.07951324 -0.12083417 0.061694257 0.0136474855
-0.68336827 0.0145014245 0.037744306 0.02840982 0.11276298 0.014169688 -0.054273076 -0.03058883
-0.057376035 -0.061014175 -0.06486875 0.0740443 -0.031723868 -1.1411979 -2.4054263 -2.330419
-4.745188 -3.2379715 -2.3396556 -2.4279666 -2.398014 -2.3788314 -2.9703598 -2.283402
-2.3740392 -2.39342 -2.4776387 -2.4704592 -2.271006 -3.1888711 -2.3519359 -2.3130534
-2.3236973 -0.7582523 -2.6510222 -2.3489773 -2.9404206 -2.3575048 -4.522084 -2.2549932
-2.5314763 -2.3670676 -2.3107824 -2.4034557 -2.32162 -2.352213 -3.2637758 -2.3754041
-3.0712535 -2.6368783 -4.2869825 -2.4664435 -2.4148014 -2.2678132 -3.0341482 -2.3625786
-2.292555 -2.333833 -2.3595312 -2.36154 -2.2721393 -2.291122 -2.3097079 -2.3284729

linear.weight f4 [1, 50]
00000000: 986c 4503 c8d9 3c83 6785 713f 6c53 aab4
00000010: 4815 5003 f81a 0103 e028 6902 8050 3202
00000020: 65b6 c8bf 008f 2a03 c01e ad01 4036 5202
00000030: e045 3b83 2875 4203 0061 2303 d377 bdbf
00000040: 601d a482 0083 1f83 9078 0c83 5c25 50c0
00000050: 08c1 8183 e818 5883 edc2 dbb2 20f0 9702
00000060: 6445 63bf 005e 3483 70b8 7e83 485f 5f83
00000070: 98c2 1203 40d3 f181 0014 2402 c081 1683
00000080: da1c 3ab5 8036 7201 d807 bebf 25a8 49b0
00000090: d53e 423f 202e a502 a046 2103 5068 a982
000000a0: 3801 c4bf c022 1803 e80f 3d03 c86c b0b0
000000b0: 0010 3c82 00cb 9801 b01a d382 c061 1503
000000c0: 00de 1883 e6d7 5f3f
5.8017756e-37 -5.5498235e-37 0.9434418 -3.1725665e-07 6.1150136e-37 3.794065e-37 1.7129867e-37 1.3100477e-37
-1.5680662 5.0122666e-37 6.359429e-38 1.5443932e-37 -5.5034573e-37 5.7145965e-37 4.8012745e-37 -1.4802192
-2.4114495e-37 -4.687628e-37 -4.12807e-37 -3.2522802 -7.626256e-37 -6.3505286e-37 -2.5583597e-08 2.232528e-37
-0.88777757 -5.3005152e-37 -7.4855615e-37 -6.5643188e-37 4.3128926e-37 -8.8832547e-38 1.2054557e-37 -4.4229984e-37
-6.9332384e-07 4.4487482e-38 -1.4846144 -7.336232e-10 0.75877124 2.4271045e-37 4.739472e-37 -2.489219e-37
-1.5312872 4.4708676e-37 5.5560368e-37 -1.2836603e-09 -1.381665e-37 5.612727e-38 -3.1018981e-37 4.3899376e-37
-4.492363e-37 0.8743881
