models/2024-03-18_06h30m26s_tavg.pt (torch, 45372 bytes, 5 tensors)

lstm.weight_ih_l0 f4 [200, 1]
000000 04 57 d4 bf 05 ed 05 c0 f9 6e f7 bf d0 d2 b9 bf
       -1.6589055 -2.0925915 -1.9330741 -1.451746
000010 11 fc 09 c0 11 06 d3 bf 91 6b 40 c0 25 3b ca bf
       -2.15601 -1.6486226 -3.0065653 -1.57993
000020 cf a2 e3 bf 03 8c c5 bf 6d be 05 c0 3b b4 ec bf
       -1.778406 -1.5433353 -2.0897477 -1.8492502
000030 fd 1a f6 bf db 25 fe bf 07 63 ed bf b4 23 07 c0
       -1.9226986 -1.9855303 -1.8545846 -2.1115541
000040 9a 60 01 c0 30 32 0e c0 38 3b 0d c0 bc d1 06 c0
       -2.021521 -2.2218132 -2.2067394 -2.1065512
000050 47 b3 fd bf 0a 6f bb bf b2 21 c6 bd da e1 02 c0
       -1.9820336 -1.4643261 -0.096743956 -2.045035
000060 f9 a4 b7 be 68 e7 e3 bf 7f 45 ff bf 4d 10 f2 bf
       -0.35868052 -1.7804995 -1.9943084 -1.8911225
000070 4e 5c cd bf dc b5 05 c0 e7 d5 dd bf cc dc f5 bf
       -1.6043794 -2.0892248 -1.7330903 -1.9208007
000080 4f fa 17 c0 b0 ae 0e c0 79 c6 3a c0 de 5a 10 c0
       -2.3746526 -2.229412 -2.9183638 -2.255546
000090 2f 43 96 3f 3d 70 f2 bf 69 88 7e bf b6 96 c7 bf
       1.1739253 -1.8940502 -0.99426895 -1.5592868
0000a0 cc a9 1a c0 8f 45 07 c0 4c b3 03 c0 be 05 00 c0
       -2.4166136 -2.1136205 -2.0578184 -2.0003505
0000b0 6f 43 db bf 99 ba e3 40 e6 c1 d2 bf 8d 4e 0a c0
       -1.7129954 7.116528 -1.6465423 -2.1610444
0000c0 1a b9 46 c0 6a cc c6 c0 18 c5 85 3d 0f 61 62 3b
       -3.1050477 -6.212453 0.06531733 0.0034542715
0000d0 59 49 f7 3d 2d 29 de 3d f1 9d 81 3c 91 a0 b7 bd
       0.12074537 0.108476974 0.015822383 -0.089661725
0000e0 3a 36 03 3e 9d 67 fe 3d 25 4d cd bd bc ff 8c bd
       0.12813655 0.124221064 -0.1002448 -0.06884715
0000f0 e5 86 0f bc 04 d1 e1 3d 42 0f b7 3c 92 75 7f bd
       -0.008760189 0.11026195 0.022346143 -0.062367983
000100 7a fe 8e bd 8c 23 b3 bd 8c d7 12 3d 9e 2b 86 3d
       -0.06982131 -0.087470144 0.035850093 0.06551288
000110 a0 1e 1b bc d0 be b9 bd 72 83 96 bd ff 12 34 3d
       -0.009467751 -0.09069598 -0.0734929 0.04396343
000120 f0 7f bc bd c6 20 8d bc 86 10 c0 3d 14 63 fe bd
       -0.0920409 -0.017227542 0.093781516 -0.124212414
000130 c7 23 11 bc 24 56 04 be cc b3 67 bc 99 a7 06 bd
       -0.008858628 -0.12923485 -0.014141988 -0.032874677
000140 3a 58 de bd 9c 1e d7 3d 4d 21 69 bc 13 92 54 bd
       -0.10856672 0.10503885 -0.014229131 -0.05189712
000150 1a 49 9c bd 2d 9d c0 3d 65 21 61 3d da 5b 06 3d
       -0.076311305 0.09404979 0.054963488 0.03280244
000160 e0 ff 4c bd 9f 42 bf bb 1f fc 77 3d 19 23 a6 bc
       -0.05004871 -0.0058367993 0.060543176 -0.020280408
000170 c7 72 fd 3c b1 ab d2 bd 09 52 a9 bd 0f 34 04 3d
       0.03093852 -0.10286654 -0.082676 0.03227621
000180 c0 04 15 bd b2 b4 95 bd 7b a9 1b bd 83 72 88 bc
       -0.036381483 -0.073098555 -0.038003426 -0.016656166
000190 00 2a 5c 03 98 89 29 03 10 ce 70 83 47 b1 93 32
       6.4700403e-37 4.9822586e-37 -7.076621e-37 1.7193669e-08
0001a0 fc a3 9f 83 90 6b 2e 03 0f ea a9 bf 80 d2 0e 03
       -9.382829e-37 5.125748e-37 -1.3274554 4.197169e-37
0001b0 40 ad 2f 83 00 47 46 83 9c f9 a3 03 08 4b 57 83
       -5.162676e-37 -5.8268474e-37 9.6375865e-37 -6.3268953e-37
0001c0 68 e7 41 03 a8 6c 79 03 a8 a9 65 03 cc 83 9b 03
       5.6983244e-37 7.3299255e-37 6.7491807e-37 9.14034e-37
0001d0 5c be 91 03 7c 89 a4 83 f8 5f 84 83 6c 60 9a 83
       8.566038e-37 -9.6706185e-37 -7.780296e-37 -9.073444e-37
0001e0 28 bd 57 83 a0 c0 f2 82 23 c4 2e c0 d0 c3 aa 83
       -6.339996e-37 -3.5669265e-37 -2.7307212 -1.0036658e-36
0001f0 a0 b0 16 c0 80 5f 2e 03 f9 b6 91 33 08 22 6b 83
       -2.3545303 5.1243633e-37 6.785371e-08 -6.909936e-37
000200 30 4e f1 82 b0 8b ff 02 a8 e9 66 83 44 ac 8a 03
       -3.5456645e-37 3.754906e-37 -6.785915e-37 8.150461e-37
000210 34 7c c2 83 28 a6 60 83 01 02 2f 3f 38 de 82 83
       -1.1430811e-36 -6.601842e-37 0.6836243 -7.691732e-37
000220 ce b1 3d 40 20 67 1d 83 3e e7 3b bf 20 56 f8 02
       2.9639773 -4.6256535e-37 -0.7339972 3.6489758e-37
000230 e8 da 58 83 28 35 4a 83 68 f8 56 03 e8 b2 4e 83
       -6.3727987e-37 -5.9423485e-37 6.3174104e-37 -6.0743333e-37
000240 58 2b 8a 03 f6 ad 9a c0 e8 10 3d 03 b8 8f 88 03
       8.120862e-37 -4.8337355 5.5561515e-37 8.026358e-37
000250 51 17 23 3f 8e a0 e0 c0 7c 0c da bf f0 81 fc bf
       0.63707453 -7.019599 -1.703506 -1.9727154
000260 ff 4a e8 bf b4 80 bd bf eb 8b 0c c0 bc ac d2 bf
       -1.8147887 -1.4804902 -2.19604 -1.6458964
000270 4e 10 42 c0 d3 a7 c1 bf c8 35 d2 bf c4 b8 c9 bf
       -3.0322452 -1.5129341 -1.6422663 -1.5759511
000280 09 fc 04 c0 df 90 03 c0 71 c6 f7 bf 95 bb f6 bf
       -2.077883 -2.0557172 -1.9357435 -1.9275995
000290 cb 28 e6 bf 9d 78 06 c0 f3 26 05 c0 fe 13 01 c0
       -1.7981199 -2.1011117 -2.0805023 -2.0168452
0002a0 45 68 0a c0 cd 67 0d c0 bc 15 0c c0 91 02 b9 bf
       -2.162614 -2.2094605 -2.1888266 -1.4453908
0002b0 65 89 e7 be 8f 67 0d c0 54 5b c0 be 24 e9 f6 bf
       -0.4522201 -2.2094457 -0.37569678 -1.9289899
0002c0 8d 30 fd bf 1b 11 f9 bf 0e 63 d3 bf 76 23 f2 bf
       -1.9780442 -1.9458345 -1.6514604 -1.8917072
0002d0 c6 6c e1 bf ab 24 e6 bf e5 9b 15 c0 db c3 06 c0
       -1.761132 -1.797994 -2.33764 -2.105704
0002e0 26 6a 3b c0 b2 78 02 c0 ec 8f 15 bf 7e c5 e2 bf
       -2.9283538 -2.0386167 -0.5842273 -1.771652
0002f0 12 a2 8d bf 13 c4 b7 bf 15 d2 14 c0 c0 a3 0a c0
       -1.1065085 -1.4356712 -2.3253224 -2.1662445
000300 32 7a 0c c0 ff 1d 01 c0 90 81 ed bf e9 df e2 40
       -2.1949582 -2.0174558 -1.8555164 7.089833
000310 e1 82 dc bf 1b 50 0a c0 b0 d1 4d c0 28 9d 6a c0
       -1.7227441 -2.1611392 -3.2159233 -3.665842

lstm.weight_hh_l0 f4 [200, 50]
000000 89 69 1a bc 17 93 bf bc 17 c6 f6 bd 9f d0 c7 3d
       -0.009424576 -0.023385568 -0.120495014 0.09756588
000010 c7 36 29 bb 89 3d 05 3e 60 2c 93 bd 67 62 41 3d
       -0.0025820003 0.13011755 -0.07186198 0.047212984
000020 7d f4 da bd 4c 37 95 3d 85 2e 62 bd d2 fd 6a 3b
       -0.10691164 0.07285938 -0.055220146 0.0035856855
000030 74 2b e1 3c ef a2 f2 bd 70 65 54 bd ec e3 dd 3d
       0.02748654 -0.11847483 -0.05185455 0.10834488
000040 26 f9 da 3d 81 48 9b bd 68 4e d1 3d 34 cf 8a 3d
       0.106920525 -0.075821884 0.10220033 0.06777802
000050 87 76 9b 3d 03 30 18 3d 08 af 33 bd 5d ff 7a bc
       0.07590967 0.037155163 -0.043868095 -0.015319672
000060 7d a8 d5 bd 49 06 38 bb 92 36 0f 3d a9 e0 bd bd
       -0.10432527 -0.0028079918 0.03496415 -0.09271366
000070 c3 d8 00 3e 7c ac 73 3d 48 1c 48 bd 66 8f 03 3e
       0.12582688 0.059490666 -0.048855096 0.12847671
000080 23 7c 3e 3d 08 57 e8 3d 7d af 8b bc a7 24 bc 3c
       0.046505105 0.11344725 -0.017051453 0.022966696
000090 74 4b d3 3d f6 58 85 bd 65 73 93 3d f6 b3 4d 3d
       0.10317126 -0.065111086 0.07199744 0.050220452
0000a0 c4 fd aa bd 06 3e 81 bd c0 32 a7 3d 01 a4 c5 3d
       -0.08349183 -0.06310658 0.08163977 0.09650422
0000b0 48 91 0b 3e 93 d9 cf 3c 5f 57 43 3c 43 c3 e8 bd
       0.13629639 0.025372302 0.011922686 -0.11365368
0000c0 ab 9d f9 bd 94 b4 e2 bd 97 0a c0 bb 7f e6 7b 3d
       -0.12188276 -0.11069599 -0.0058606374 0.061499115
0000d0 ec 52 9b bd 60 5d 8d 3d ee 72 9b bd c7 47 fb 3d
       -0.075841755 0.069025755 -0.075902805 0.1226955
0000e0 18 8a b0 3d 20 93 29 bc 0e cf 06 3e b1 46 cf bd
       0.08620089 -0.010350019 0.13164923 -0.10120905
0000f0 30 70 bb 3d b8 ab af bd 78 7a 04 3e 66 f0 02 bd
       0.091522574 -0.085776746 0.12937343 -0.031967543
000100 4f 45 b2 3c ae bd c5 3d 81 9d fe 3d 7a 8b fb bc
       0.021761565 0.09655319 0.12432385 -0.030706156
000110 47 27 fe 3d e3 89 05 3e 63 de c3 bd 1e 82 f8 ba
       0.12409835 0.13040881 -0.09563901 -0.0018959676
000120 90 5d 53 3d 63 9f a9 bd 76 fa e9 3d 58 88 0c be
       0.0516029 -0.08282354 0.11424725 -0.13723886
000130 64 ed 44 bd 36 f4 ca 3d fa 0f 89 3d ba f1 77 bc
       -0.048077956 0.09909861 0.066925004 -0.015133316
000140 11 29 0f be e5 87 31 3d cf b7 ff bb 0a f2 0a be
       -0.1398051 0.04334249 -0.007803894 -0.13568893
000150 f5 37 47 bd fb a8 16 bd 31 7e 09 3e 15 a2 c7 bd
       -0.04863735 -0.036782246 0.13427044 -0.097477116
000160 c9 b7 e4 3d 33 39 69 bd 60 8c 87 3d 60 62 e5 3d
       0.11167867 -0.056939315 0.06618571 0.11200404
000170 3c 2a 9e 3d da 78 04 be f3 72 b6 3a 2e f4 85 3d
       0.07722899 -0.12936726 0.0013919756 0.06540714
000180 d0 3e de bd 70 ed c3 bd 7f 0c 79 3d 57 7c bd 3d
       -0.10851824 -0.09566772 0.060802933 0.092522316
000190 24 ea ac bd a3 1c cd 3d 8e 9f 9b 3d 8c b0 ce bd
       -0.08443096 0.10015228 0.07598792 -0.100922674
0001a0 f2 fa b5 3d 79 6f 0e 3e 7f d5 2a 3c 8f d7 da bd
       0.08885755 0.13909711 0.010426878 -0.10685646
0001b0 01 72 d9 3d 09 1d 64 3d 8c 9e a9 bc 38 84 8c bd
       0.10617448 0.055691753 -0.020705484 -0.06861156
0001c0 0e ed bc 3d be e8 79 bd c1 44 33 3d 99 76 5c 3d
       0.09224902 -0.061012976 0.04376674 0.05382404
0001d0 32 0c e6 bd ff b0 fb 3d 6a 79 9c 3d 09 5e f1 3d
       -0.11232795 0.12289619 0.076403454 0.11785514
0001e0 97 42 72 bd 61 f3 b8 bc 31 74 bb 3d 1e 91 8b bd
       -0.059145536 -0.02257699 0.09153021 -0.06814788
0001f0 1c a0 03 be 63 9f f3 3d 2e 03 01 be f3 de 0f bd
       -0.12854046 0.11895635 -0.12598869 -0.03512473
000200 2f 2c ef 3d b2 a2 10 bd 2c 15 d4 3d 16 36 d6 bd
       0.11678349 -0.03531141 0.10355601 -0.10459535
000210 4a c1 05 be 4c 7b c8 bc 76 5a 0f 3e 7a b8 78 3d
       -0.13062015 -0.024472855 0.13999352 0.060722806
000220 87 0a 8b bd 6d 1f 87 3d fa 8e 44 bd 7a aa aa 3d
       -0.06789117 0.06597791 -0.047987916 0.08333297
000230 1f b7 af 3d 78 a6 ae bc 2a d3 49 3b fc 97 83 3b
       0.085798495 -0.021319613 0.003079603 0.0040159207
000240 ec 9a be 3d 29 9d 10 be 1a c6 e8 bd 18 5c a1 3d
       0.09306893 -0.14122452 -0.1136591 0.078788936
000250 74 8d e9 bc 37 cf dc bd cb e3 f9 3d 0d eb db bd
       -0.028509833 -0.107817106 0.12201651 -0.10738192
000260 74 21 d9 3c 98 a4 f0 bd fa 95 ba 3d 95 3c 95 bd
       0.02650521 -0.11750144 0.09110637 -0.07286946
000270 c9 27 cc bc 1b 0c 06 bd 6f b5 8f bd f0 c4 ce bd
       -0.024921315 -0.03272639 -0.070170276 -0.100961566
000280 f7 91 cd bc 33 9f bf 3d 0c 72 50 bd cf a4 08 be
       -0.025094016 0.09356537 -0.050890014 -0.1334412
000290 c6 3d cd bd 73 17 d8 3d 84 8c 53 bd e3 f6 56 3d
       -0.10021548 0.105513476 -0.051647678 0.052481543
0002a0 d1 a0 0b 3c 80 b5 9e bd a8 06 ef 3c 7b 15 bf 3d
       0.008522228 -0.07749462 0.029177979 0.09330269
0002b0 c4 19 0d 3e 4f 07 d8 3d bc 88 9c 3d a9 2b 9e 3d
       0.1377936 0.10548269 0.076432675 0.07723171
0002c0 66 7e 80 3d ef e4 97 3c d3 81 7b bd 17 50 c2 bd
       0.062741086 0.018541781 -0.061403107 -0.09487932
0002d0 cf 68 44 bc a2 d1 eb bd de 26 93 bc 95 1a 08 bd
       -0.011987879 -0.11514594 -0.01796287 -0.033228476
0002e0 5f 06 b8 bd b5 b6 99 3d 1a b5 ac bd af 5a 69 bd
       -0.0898559 0.07505552 -0.0843298 -0.05697125
0002f0 fb fb aa bd be 15 67 3d b6 26 e9 bd 01 9a 91 3d
       -0.08348843 0.05641722 -0.11384337 0.07109452
000300 5a 87 de 3d a6 40 0c be 6c 3a 9d 3d cd 98 88 bc
       0.1086566 -0.13696536 0.07677159 -0.016674424
000310 12 02 c1 3d 94 87 78 bd 3f c3 ea 3d b9 6c 07 be
       0.09424223 -0.060676172 0.114630215 -0.13225068
000320 f2 75 ec 3d fd 07 c6 3c 7b 94 85 3d 16 41 25 3d
       0.11545934 0.024173731 0.06522461 0.040345274
000330 43 b2 08 be cc 1b af 3d 5d c5 c3 bc f0 35 6c bd
       -0.13349251 0.08550224 -0.023897821 -0.057668626
000340 b8 61 91 bb b3 94 f6 3b 64 f6 a2 bd 09 c9 10 be
       -0.004436698 0.0075250505 -0.079571515 -0.14139189
000350 b2 1a 9f bc fa f5 03 bd c9 6c 27 3d 8f 91 6e 3d
       -0.019421909 -0.032217003 0.04087523 0.058244284
000360 d6 0b 06 be f8 c4 ff 3d f1 c8 21 3d f6 38 f6 bd
       -0.13090453 0.12488741 0.039498273 -0.12022583
000370 f6 17 83 3c e9 88 e5 3d fa 24 cb bd 16 80 ca bc
       0.016002636 0.11207754 -0.09919162 -0.02471928
000380 b3 ec 72 3d 68 51 82 3c 13 e9 9f 3d a7 c5 b8 bd
       0.059307765 0.015907958 0.07808127 -0.09022074
000390 14 c3 00 3e 3f 5d 29 bb 64 68 c7 3d 1c 5b 03 3e
       0.12574416 -0.0025842933 0.09736708 0.12827724
0003a0 44 ae 37 bd e0 7b f9 3d c6 61 8d 3d f6 c4 7f 3d
       -0.044843927 0.121818304 0.069034144 0.062443696
0003b0 cb 74 48 3c 85 6a 53 bc 52 1d 3f 3d 35 72 95 3d
       0.012234877 -0.012903814 0.04665882 0.07297174
0003c0 97 21 28 bc 68 af 64 bd a9 6f 83 3d 5f c4 0c be
       -0.010261915 -0.055831343 0.06417782 -0.13746785
0003d0 6a be 05 3d 98 b7 15 bd e0 80 03 be cd fd 77 3d
       0.032652296 -0.03655204 -0.1284213 0.060544778
0003e0 ec 78 0e be 10 7e de 3d ea b9 1a 3d 32 fe f0 bd
       -0.13913316 0.10863888 0.037774958 -0.11767234
0003f0 dd 7c b2 bd 46 7a 65 3d 09 b7 37 bd 1b c2 c8 3d
       -0.08715222 0.056024812 -0.04485229 0.09802648

lstm.bias_ih_l0 f4 [200]
000000 2b 34 14 c0 24 f6 13 c0 da fb 12 c0 8e 93 31 c0
       -2.315684 -2.3118982 -2.2966218 -2.774631
000010 69 31 1e c0 2e 4a 19 c0 20 a7 6e c0 01 79 1f c0
       -2.4717658 -2.3951526 -3.7289505 -2.4917605
000020 58 b0 1c c0 18 9b 1c c0 6a 91 11 c0 9d 54 1d c0
       -2.4482632 -2.4469662 -2.2745004 -2.4582894
000030 db ac 1c c0 34 0a 19 c0 3f b2 19 c0 a9 50 1b c0
       -2.4480503 -2.3912477 -2.4015043 -2.426798
000040 39 5c 20 c0 8c 82 1a c0 36 4c 1a c0 13 90 1c c0
       -2.5056288 -2.414218 -2.4109015 -2.4462936
000050 d3 04 1d c0 21 a4 1f c0 60 a4 81 c0 2f 65 1e c0
       -2.4534194 -2.4943926 -4.0513153 -2.4749258
000060 39 52 82 c0 49 c6 1f c0 bf e3 17 c0 30 67 14 c0
       -4.072537 -2.4964774 -2.3732755 -2.318798
000070 15 b6 18 c0 51 94 1f c0 97 f3 1a c0 48 69 17 c0
       -2.3861134 -2.4934275 -2.4211175 -2.3658009
000080 ff e3 14 c0 b1 46 1e c0 07 62 6f c0 fe ec 1e c0
       -2.3264158 -2.4730647 -3.740358 -2.4832149
000090 e6 27 7c c0 3b b3 18 c0 10 d8 7b c0 c7 ea 1d c0
       -3.9399352 -2.3859394 -3.9350624 -2.4674547
0000a0 22 e7 1a c0 a9 17 18 c0 b0 6a 16 c0 c8 1e 1e c0
       -2.4203572 -2.376444 -2.3502617 -2.4706287
0000b0 db 19 22 c0 66 9d 1a c0 9e 57 1b c0 53 65 20 c0
       -2.532828 -2.4158568 -2.4272227 -2.5061843
0000c0 96 66 77 c0 a4 63 67 3f 0b 6b 7c bd 97 b9 ab bd
       -3.8656363 0.90386415 -0.06162552 -0.08385008
0000d0 77 1e 71 3a 5d cf 3c bd 8a c8 d2 bd 94 64 c1 bc
       0.000919796 -0.046096195 -0.10292156 -0.02360753
0000e0 c3 96 fe bd d6 22 d6 bd b4 48 c8 bd 71 77 0c 3d
       -0.12431099 -0.10455863 -0.09779492 0.034293596
0000f0 2c 7b a0 3d d7 3d a7 bd af 1b 4d bd 54 62 75 bd
       0.07835993 -0.08166092 -0.05007523 -0.059908226
000100 eb 74 8e bd e7 c5 ec bc 9c 3a fa 3d 63 ba 15 bd
       -0.06955894 -0.028902961 0.1221821 -0.036554705
000110 26 48 12 bd c1 15 a9 3c 1c a5 80 3d 54 f7 04 3e
       -0.035713337 0.020640256 0.06281492 0.12984973
000120 5c 11 83 3d 5a 21 5e bd 9b 66 33 3d 15 ab c6 3d
       0.063997954 -0.054231025 0.043799024 0.097006
000130 2d 0e b1 bd ec 29 05 3e 36 8f bf bd 87 03 0e bd
       -0.08645282 0.13004273 -0.09353487 -0.034671333
000140 7c 9a 46 bd 5a 04 0f be 8d 36 bc 3d d8 e7 4b 3d
       -0.04848717 -0.13966504 0.09190092 0.04978165
000150 ce c5 a0 bd e0 77 07 bd c7 c1 d3 3c 26 ca 6a bd
       -0.07850228 -0.033073306 0.025849236 -0.05732169
000160 b2 41 9c bd ec 61 47 bd cd ff de 3d 52 2b b6 bc
       -0.07629718 -0.04867737 0.10888634 -0.022237454
000170 37 18 bd bc 97 19 b4 3c d0 9c fe bd 0e 77 0d be
       -0.023082836 0.021984858 -0.12432253 -0.13814947
000180 32 9e bb 3c 14 c8 9f bc 40 7a 17 3d 31 98 df bc
       0.022902582 -0.019504584 0.03698182 -0.02729425
000190 b6 9b 4d bd 8c 97 e7 bd 5c 4b cb 3d e1 67 54 bd
       -0.050197326 -0.11308202 0.09926483 -0.05185688
0001a0 98 f7 8e 3c a6 fa 71 bd 05 d0 6a 3d b5 1b 84 bd
       0.017452046 -0.059076928 0.05732729 -0.06450597
0001b0 f0 c9 b6 3d ca 35 03 be 72 66 35 bd 96 5b 04 3e
       0.08925235 -0.12813488 -0.044287153 0.12925562
0001c0 0b 8d 0b 3d d9 09 4f 3c 32 98 42 3d ea 0e 0e 3c
       0.034070056 0.012636625 0.047508426 0.008670548
0001d0 71 77 e2 3b ed d9 34 bc 49 e6 84 3c 16 c4 a7 3d
       0.006911211 -0.011038286 0.01622309 0.08191697
0001e0 4d 0e 70 bd be fa ae 3c 21 1d 16 3f 6f fe 16 bd
       -0.05860739 0.021359798 0.586382 -0.03686374
0001f0 c1 85 0a 3f b8 f9 38 3d 95 28 00 3e 16 ee d0 3d
       0.5411034 0.045160025 0.12515481 0.10201661
000200 15 22 53 bd 5e 83 61 bd 45 e6 9f 36 d7 21 87 3d
       -0.051546175 -0.055056922 4.765376e-06 0.06598251
000210 3a 16 1f 3c bf 6b e6 3c 3b 2c da bc 39 a6 5f bd
       0.009709889 0.02812755 -0.026632419 -0.05460188
000220 d3 a4 18 bf a1 aa 1f 3d 66 d1 32 3e 83 40 ec 3c
       -0.596265 0.038981084 0.17462692 0.028839355
000230 6f 7c ed 3b d4 56 f5 ba 39 dd a7 bc 07 55 df 3d
       0.0072474997 -0.0018717893 -0.02049123 0.109048896
000240 4a b0 54 3d 6a a5 18 c0 ab a5 d8 3c 65 3f 93 3c
       0.051925935 -2.385096 0.026446184 0.017974565
000250 b5 89 91 be a1 f7 32 be 14 83 1e c0 af b5 13 c0
       -0.28425375 -0.17477275 -2.4767504 -2.307964
000260 24 ac 1b c0 1b d6 25 c0 db 97 1b c0 20 17 17 c0
       -2.4323816 -2.591193 -2.4311435 -2.3607864
000270 43 4e 63 c0 65 6e 19 c0 cf 8a 1c c0 36 95 1e c0
       -3.5516517 -2.397363 -2.4459722 -2.477857
000280 4e f2 1e c0 93 6d 11 c0 46 a1 15 c0 0a d8 1d c0
       -2.483539 -2.2723129 -2.3379683 -2.466311
000290 1e 99 20 c0 85 5a 21 c0 56 db 1d c0 d3 56 22 c0
       -2.5093455 -2.5211499 -2.4665122 -2.5365493
0002a0 72 f7 1e c0 9b ab 15 c0 0d 4c 16 c0 f8 a1 20 c0
       -2.4838529 -2.338599 -2.3483918 -2.5098858
0002b0 13 89 8e c0 99 06 15 c0 eb 50 87 c0 91 48 20 c0
       -4.4542327 -2.3285277 -4.2286277 -2.504429
0002c0 90 18 20 c0 76 ee 23 c0 a9 c2 16 c0 9f c6 1b c0
       -2.5014992 -2.5614295 -2.355631 -2.4339979
0002d0 15 c2 1f c0 bc f7 1c c0 03 96 15 c0 9c 00 14 c0
       -2.4962208 -2.4526205 -2.337281 -2.3125372
0002e0 bb 43 72 c0 3e 59 19 c0 d7 2c 9a c0 29 1c 21 c0
       -3.785384 -2.396072 -4.8179736 -2.5173438
0002f0 c0 f9 75 c0 a2 29 1e c0 2c b9 0e c0 93 25 1f c0
       -3.8433685 -2.471291 -2.230052 -2.4866683
000300 ea 6b 18 c0 a0 22 1c c0 70 dc 18 c0 90 8a 04 c0
       -2.3815866 -2.4396133 -2.3884544 -2.0709572
000310 73 a6 18 c0 6e 20 1e c0 ea ab 7b c0 34 4d 05 bf
       -2.3851593 -2.4707294 -3.9323678 -0.5207093

lstm.bias_hh_l0 f4 [200]
000000 83 69 24 c0 62 84 23 c0 24 ed 1f c0 f0 80 30 c0
       -2.56894 -2.554955 -2.498849 -2.7578697
000010 cf 43 18 c0 24 71 1f c0 fe 76 6f c0 af f1 13 c0
       -2.3791387 -2.4912806 -3.7416377 -2.3116262
000020 1e 74 18 c0 e7 b8 1d c0 15 a3 1d c0 45 0b 20 c0
       -2.3820872 -2.4644105 -2.4630787 -2.5006878
000030 47 68 18 c0 0b 3b 1a c0 25 5a 15 c0 19 f2 1e c0
       -2.3813646 -2.4098537 -2.333627 -2.4835265
000040 6d 15 17 c0 3e 2a 1b c0 a2 17 19 c0 f1 92 1a c0
       -2.3606827 -2.4244533 -2.3920674 -2.4152186
000050 a1 f3 1b c0 5a a1 1b c0 d9 fc 7c c0 1e d5 24 c0
       -2.436745 -2.431723 -3.9529326 -2.5755076
000060 4b 99 84 c0 96 67 20 c0 02 82 1f c0 93 dd 1b c0
       -4.1437125 -2.5063224 -2.49231 -2.4353988
000070 35 61 1c c0 0d 86 1c c0 94 8d 1f c0 49 9d 20 c0
       -2.443433 -2.4456818 -2.4930162 -2.5096
000080 52 10 21 c0 01 15 20 c0 eb 55 74 c0 ce eb 18 c0
       -2.516621 -2.501282 -3.817744 -2.3893924
000090 08 e4 80 c0 8f 83 1a c0 1c 97 73 c0 a4 1e 0f c0
       -4.027836 -2.4142797 -3.806098 -2.2362452
0000a0 d8 de 18 c0 94 21 18 c0 66 ff 21 c0 ad a4 18 c0
       -2.3886013 -2.3770494 -2.5312133 -2.385051
0000b0 6b 62 1f c0 6c c3 25 c0 eb 00 23 c0 87 99 1b c0
       -2.490382 -2.5900526 -2.546931 -2.4312456
0000c0 b6 14 6f c0 7a 6b 86 3f 02 bc f4 3d d9 04 0f 3e
       -3.735639 1.0501549 0.11949922 0.13966693
0000d0 0a f3 47 bc 59 07 92 3d 77 ae 04 be 8b ff b3 bd
       -0.012203941 0.07130308 -0.12957178 -0.08788975
0000e0 e5 5e b5 bb 5a 7d f0 bd e4 29 95 bd bc 86 d3 3c
       -0.005534994 -0.11742659 -0.07283381 0.025821082
0000f0 c5 57 c4 3d 80 67 1c 3c 89 1c 04 3e 8f d9 99 bd
       0.09587053 0.009546161 0.1290151 -0.07512199
000100 6c 3e 56 3d 7f 33 14 3d c4 a1 9c 3c d3 f3 b0 3d
       0.052305624 0.036181923 0.019120105 0.08640256
000110 db d1 31 bd fd b5 7f bd 4f 71 0a 3e ac f3 88 3d
       -0.043413024 -0.062429417 0.13519786 0.06687102
000120 f7 58 09 3e 9e 6e cf 3d d4 83 52 bd 13 30 01 3d
       0.13412844 0.101285204 -0.051395252 0.031539988
000130 ef c5 d0 3d 55 96 0b bd 9d 61 b0 bc 7a 94 ea 3d
       0.10194003 -0.034078915 -0.02153092 0.11454101
000140 a1 13 24 bc c0 f9 21 bd b1 6b ad bd 43 31 0a bd
       -0.0100144455 -0.03954482 -0.08467806 -0.033738386
000150 0b 41 26 3b f2 df 1d 3d 7f a6 81 3d dc b4 cf bd
       0.0025368358 0.03854365 0.06330585 -0.10141918
000160 30 a2 1e bd e0 9c b3 3d 24 41 99 3d 37 5e ca bc
       -0.038728893 0.08770156 0.07483128 -0.024703128
000170 b4 8b 00 be a1 40 d8 3d f3 d8 62 3d 90 97 7f bc
       -0.12553293 0.10559202 0.05538268 -0.0156001
000180 cd ce 85 3d 7a 0a 15 3d 74 bf a6 3d 19 0e 2f 3c
       0.06533585 0.036386944 0.081419855 0.0106845135
000190 b6 9b 4d 3d 8c 97 e7 3d 5c 4b cb bd df 67 54 3d
       0.050197326 0.11308202 -0.09926483 0.05185687
0001a0 98 f7 8e bc a6 fa 71 3d 7f 18 9f 3d b5 1b 84 3d
       -0.017452046 0.059076928 0.07768344 0.06450597
0001b0 f0 c9 b6 bd ca 35 03 3e 72 66 35 3d 96 5b 04 be
       -0.08925235 0.12813488 0.044287153 -0.12925562
0001c0 0b 8d 0b bd d9 09 4f bc 32 98 42 bd ea 0e 0e bc
       -0.034070056 -0.012636625 -0.047508426 -0.008670548
0001d0 71 77 e2 bb ed d9 34 3c 49 e6 84 bc 16 c4 a7 bd
       -0.006911211 0.011038286 -0.01622309 -0.08191697
0001e0 4d 0e 70 3d be fa ae bc 27 bc 37 3f 6f fe 16 3d
       0.05860739 -0.021359798 0.7177147 0.03686374
0001f0 81 f0 1b 3f b8 f9 38 bd 9e 28 00 be 16 ee d0 bd
       0.60913855 -0.045160025 -0.12515494 -0.10201661
000200 15 22 53 3d 5e 83 61 3d 45 e6 9f b6 d7 21 87 bd
       0.051546175 0.055056922 -4.765376e-06 -0.06598251
000210 3a 16 1f bc bf 6b e6 bc 77 04 08 bd 39 a6 5f 3d
       -0.009709889 -0.02812755 -0.033207383 0.05460188
000220 35 b3 32 bf a1 aa 1f bd d2 a7 11 3e 83 40 ec bc
       -0.698047 -0.038981084 0.14224175 -0.028839355
000230 6f 7c ed bb d4 56 f5 3a 39 dd a7 3c 07 55 df bd
       -0.0072474997 0.0018717893 0.02049123 -0.109048896
000240 4a b0 54 bd 6e 47 11 c0 ab a5 d8 bc 65 3f 93 bc
       -0.051925935 -2.2699847 -0.026446184 -0.017974565
000250 56 05 0c bf 6f fd 21 be b9 21 17 c0 a9 34 23 c0
       -0.5469564 -0.15819333 -2.3614333 -2.5500891
000260 d9 22 21 c0 02 a5 26 c0 be 42 1a c0 07 7f 1e c0
       -2.517752 -2.6038213 -2.4103236 -2.4765031
000270 3f 07 63 c0 51 3e 23 c0 4e 15 1b c0 74 d9 26 c0
       -3.5473173 -2.5506785 -2.4231753 -2.6070223
000280 64 5d 20 c0 d1 95 1f c0 10 c1 23 c0 33 44 1e c0
       -2.5057 -2.493519 -2.5586586 -2.4729125
000290 19 81 1d c0 64 00 12 c0 2c 14 1a c0 9b 15 16 c0
       -2.4610045 -2.2812738 -2.4074812 -2.3450687
0002a0 6a 5b 19 c0 aa b4 1f c0 83 37 1f c0 6a 1d 13 c0
       -2.3962045 -2.4954019 -2.4877632 -2.2986703
0002b0 7f c4 88 c0 6b c3 14 c0 8d ec 83 c0 57 7a 0f c0
       -4.2739863 -2.3244274 -4.122626 -2.241842
0002c0 36 a7 18 c0 ac a8 19 c0 22 74 1b c0 f2 b4 17 c0
       -2.3852057 -2.40092 -2.4289632 -2.370419
0002d0 d6 64 14 c0 7c 07 19 c0 61 87 16 c0 d6 16 1a c0
       -2.3186545 -2.3910818 -2.3520129 -2.4076438
0002e0 2d 45 70 c0 ea 21 1c c0 7d 7b 99 c0 05 38 1a c0
       -3.7542222 -2.43957 -4.7963243 -2.4096692
0002f0 2c e5 6e c0 68 1f 1b c0 22 29 18 c0 0d 03 1e c0
       -3.7327375 -2.423792 -2.3775105 -2.4689362
000300 1a 99 1c c0 3c 25 1c c0 00 88 13 c0 50 40 07 c0
       -2.4468446 -2.4397726 -2.3051758 -2.1133003
000310 a7 5f 17 c0 b0 92 12 c0 e8 62 75 c0 26 39 db be
       -2.3652132 -2.290203 -3.8341618 -0.42817038

linear.weight f4 [1, 50]
000000 e0 7c dd 82 60 f4 2b 03 10 f6 6c 03 f2 16 e4 b1
       -3.2544706e-37 5.053291e-37 6.9636633e-37 -6.638282e-09
000010 44 ea d2 83 40 71 34 83 f4 06 25 3f c0 2f 21 83
       -1.2396475e-36 -5.302725e-37 0.64463735 -4.736846e-37
000020 68 9d 44 03 e8 de 49 03 98 52 9d 03 c8 e0 92 83
       5.7779917e-37 5.9324475e-37 9.246593e-37 -8.632716e-37
000030 d8 78 32 03 f8 83 81 03 68 03 5a 83 28 34 9e 03
       5.244822e-37 7.612237e-37 -6.4068352e-37 9.29838e-37
000040 3c 4a 8e 03 bc 76 a0 83 88 54 87 83 34 4b d9 83
       8.363053e-37 -9.431215e-37 -7.953994e-37 -1.27713795e-36
000050 d4 c5 8c 83 b0 1d d3 02 be c0 28 bf e4 84 cc 83
       -8.27388e-37 3.1020703e-37 -0.659191 -1.2020553e-36
000060 b7 67 0f bf 30 b5 6f 83 55 cb f4 33 80 ff 5e 83
       -0.5601763 -7.044378e-37 1.1399121e-07 -6.5533236e-37
000070 58 24 02 03 68 82 7b 03 60 4e 2c 03 30 64 f9 02
       3.8245287e-37 7.391197e-37 5.0636227e-37 3.6644766e-37
000080 34 b8 c7 83 38 e3 8c 83 d1 0c dd be 3c 8d a3 83
       -1.173846e-36 -8.280627e-37 -0.4317384 -9.612705e-37
000090 1f 28 2e 3f d8 41 91 83 16 ba 4c bd 60 09 fb 82
       0.6802997 -8.537451e-37 -0.049982153 -3.6886516e-37
0000a0 48 97 4e 83 70 21 7f 03 68 27 4f 83 88 9b 53 83
       -6.071162e-37 7.497615e-37 -6.087707e-37 -6.218587e-37
0000b0 60 6e ff 82 52 a1 08 bf d8 66 3c 83 74 5b 87 03
       -3.7532235e-37 -0.53371155 -5.5366293e-37 7.9555835e-37
0000c0 4f 10 a1 be a2 86 1c 40
       -0.31457755 2.4457173
