models/2024-03-18_12h23m16s_tmax.pt (torch, 45372 bytes, 5 tensors)

lstm.weight_ih_l0 f4 [200, 1]
-1.9399878 -11.183138 -2.714317 -1.8204143 -2.8371444 -2.7824152 -2.2476633 -2.8405252
-1.9347426 -2.8262527 11.485085 -2.255945 -1.939577 -1.80074 -2.017106 -2.1091797
-2.2789247 -2.686245 -2.2197485 -1.6938466 -2.0491092 -1.8498719 -1.589624 -2.0348403
-1.9056374 -2.9231982 -2.5441363 -2.4668334 -1.9862372 -1.983155 -1.9873981 -2.1853745
-2.207291 -2.8177216 -2.2604282 -1.8537946 -2.4323559 -2.2324698 -1.9375671 -2.0780349
-1.9760725 -2.071605 -2.1244483 -2.4184325 -2.2443573 -1.7223552 -2.7343128 -2.629839
-1.8566145 -2.1954923 0.048986644 -0.107351065 0.11356921 0.0755881 0.023440072 -0.08307718
0.015567209 0.04553212 0.024020806 -0.028980292 -0.11399713 -0.09949437 -0.1321033 -0.10929529
-0.100362256 0.079011455 0.110443816 -0.03400246 -0.08386382 0.03763906 -0.08283928 -0.034119494
-0.008600807 -0.018584805 0.06832251 0.050205767 -0.11669719 0.055189412 0.08544846 -0.019334396
-0.06859933 0.046822503 0.070968725 -0.086276576 -0.13933226 0.11786824 -0.032136433 0.032837115
-0.092683114 -0.06498399 -0.005072542 -0.03883062 0.1351081 0.049600385 0.016127087 -0.12721027
0.07718978 -0.023959963 0.07394921 0.05381045 -8.917869e-37 -6.73999 1.19665705e-36 -7.2361564e-37
-1.8404194 -9.384217e-37 5.48377e-37 -0.35410032 -4.368758e-37 0.05964001 7.3084197 6.7933228e-37
-5.615565e-37 5.8313998e-37 -7.269852e-37 -8.975151e-37 7.4922447e-37 8.464933e-37 -5.426685e-37 1.634438e-36
-6.1120146e-37 -1.4615616e-36 1.388211e-07 7.811477e-37 6.046582e-37 2.1491099e-36 -1.2065132e-36 8.870086e-37
5.009038e-37 -5.712473e-37 -6.235103e-37 -8.433566e-37 -9.292543e-37 -7.325811e-37 -7.837288e-37 1.571704e-35
7.830935e-37 -6.9635556e-37 7.6857485e-37 -6.564448e-37 5.2875004e-37 8.578494e-37 2.0929058e-37 2.7495727e-37
-6.9419815e-37 6.437055e-37 1.0710813e-36 8.749265e-37 -6.0535986e-37 4.2924844e-38 -2.1295047 -1.0081681
-2.7128234 -1.7895932 -3.108035 -2.6068048 -2.1528049 -3.1396337 -1.8291007 -2.9885893
9.611431 -2.3738143 -2.096441 -1.941995 -2.1079285 -1.90853 -2.076846 -2.5869098
-2.0349212 -1.7758187 -1.8753785 -1.9606434 -1.6393688 -1.9927201 -1.9151024 -2.8299694
-2.4074981 -2.5887063 -1.8952724 -2.0815914 -2.1150978 -2.0149906 -2.4044352 -2.6346917
-2.3790193 -1.8945128 -2.459044 -2.042204 -1.8609415 -2.0818586 -1.9030868 -1.9996334
-2.2112188 -2.4521215 -2.0344465 -1.7858444 -2.7175262 -2.588211 -2.052063 -2.0382354
00000000: 8551 f8bf 22ee 32c1 5fb7 2dc0 5603 e9bf
00000010: c693 35c0 1713 32c0 b7d9 0fc0 2acb 35c0
00000020: a5a5 f7bf 53e1 34c0 e8c2 3741 6761 10c0
00000030: 0f44 f8bf a67e e6bf 4418 01c0 cdfc 06c0
00000040: e7d9 11c0 70eb 2bc0 5c10 0ec0 f7cf d8bf
00000050: 9b24 03c0 9ac8 ecbf cd78 cbbf d33a 02c0
00000060: edeb f3bf ae15 3bc0 21d3 22c0 99e0 1dc0
00000070: 053d febf 06d8 fdbf 1063 febf 2ddd 0bc0
00000080: 4144 0dc0 8d55 34c0 dbaa 10c0 2449 edbf
00000090: b8ab 1bc0 c9e0 0ec0 3302 f8bf 86fe 04c0
000000a0: f2ef fcbf 2d95 04c0 f6f6 07c0 99c7 1ac0
000000b0: 8da3 0fc0 2376 dcbf fbfe 2ec0 484f 28c0
000000c0: 8ba5 edbf f282 0cc0 38a6 483d e0da dbbd
000000d0: f996 e83d efcd 9a3d 6505 c03c 5e24 aabd
000000e0: 9b0d 7f3c e37f 3a3d 48c7 c43c 1468 edbc
000000f0: 5477 e9bd b4c3 cbbd 1646 07be 36d6 dfbd
00000100: ba8a cdbd c2d0 a13d 5e30 e23d 2a46 0bbd
00000110: cbc0 abbd 6a2b 1a3d a4a7 a9bd e2c0 0bbd
00000120: 66ea 0cbc 293f 98bc acec 8b3d 90a4 4d3d
00000130: f0fe eebd 4b0e 623d 9aff ae3d 2b63 9ebc
00000140: ce7d 8cbd f4c8 3f3d 0d58 913d c6b1 b0bd
00000150: 1ead 0ebe e764 f13d 7ea1 03bd 3680 063d
00000160: a5d0 bdbd 5316 85bd 9137 a6bb db0c 1fbd
00000170: c759 0a3e c629 4b3d f41c 843c 6943 02be
00000180: ad15 9e3d af47 c4bc af72 973d 5968 5c3d
00000190: ccba 9783 00ae d7c0 c499 cb03 d03b 7683
000001a0: dd92 ebbf 08aa 9f83 609a 3a03 a34c b5be
000001b0: 40a9 1483 1549 743d 93de e940 302a 6703
000001c0: 7816 3f83 a86e 4603 5861 7783 4cb4 9883
000001d0: a8f2 7e03 fc05 9003 18a9 3883 e80a 0b04
000001e0: 28fb 4f83 fcab f883 da0e 1534 c8e7 8403
000001f0: 28c1 4d03 78d3 3604 1047 cd83 acea 9603
00000200: e072 2a03 a862 4283 682b 5483 5c7d 8f83
00000210: bc1a 9e83 d048 7983 3458 8583 da21 a705
00000220: 883c 8503 20f5 6c83 28c4 8203 6860 5f83
00000230: a0ec 3303 9cf4 9103 906f 8e02 5020 bb02
00000240: 3039 6c83 a80a 5b03 2c3c b603 6cdc 9403
00000250: 48fe 4d83 80b4 6901 ce49 08c0 a70b 81bf
00000260: e69e 2dc0 6411 e5bf 0cea 46c0 e4d5 26c0
00000270: 8ec7 09c0 c2ef 48c0 f91f eabf 0c45 3fc0
00000280: 6cc8 1941 93ec 17c0 172c 06c0 4b93 f8bf
00000290: 4de8 06c0 b64a f4bf 0beb 04c0 ee8f 25c0
000002a0: 263c 02c0 074e e3bf 670c f0bf 5df6 fabf
000002b0: d6d6 d1bf 7411 ffbf 1322 f5bf 381e 35c0
000002c0: 7314 1ac0 5dad 25c0 4998 f2bf cb38 05c0
000002d0: c35d 07c0 9bf5 00c0 44e2 19c0 ca9e 28c0
000002e0: da41 18c0 657f f2bf fa60 1dc0 78b3 02c0
000002f0: 5533 eebf 2c3d 05c0 5998 f3bf fdf3 ffbf
00000300: 9c84 0dc0 8fef 1cc0 5f34 02c0 8d96 e4bf
00000310: f3eb 2dc0 40a5 25c0 0055 03c0 7372 02c0

lstm.weight_hh_l0 f4 [200, 50]
-0.021323828 0.13533589 -0.082039535 -0.044343613 -0.12445955 0.06661792 -0.076252066 0.1343339
-0.05698556 -0.0489903 0.00073107926 0.12974492 -0.02653387 0.05720312 0.07903586 -0.11184151
0.02532842 0.0028698465 -0.05356246 0.10465004 0.11880155 0.042583372 0.10823542 -0.04847102
0.04559217 -0.066604026 -0.06854553 -0.026533449 0.05446088 0.023987053 0.08610369 0.009024939
0.109596476 0.044952802 0.012996773 -0.093130045 0.031796478 -0.1271533 0.117337234 -0.002030888
0.122961394 -0.13312893 -0.06927022 -0.032551512 0.059850466 0.031343296 -0.00034439034 -0.10409623
-0.12774636 -0.13326342 0.05573422 0.08063345 -0.06662193 0.028149966 0.108123325 -0.019478083
-0.07642566 0.09143307 0.11100268 -0.054105714 -0.10002098 -0.0057781814 -0.107577376 -0.0009693101
-0.11046272 -0.123444095 0.01016872 0.02870224 -0.06367341 0.11372862 -0.060157243 0.11621382
-0.070282675 0.10280713 0.05980262 0.09002427 -0.013452229 -0.01026205 -7.6285796e-05 -0.03596035
-0.063071884 0.07529354 -0.08374989 0.057792116 -0.032796893 0.074359484 0.046959277 -0.036928263
0.06600586 -0.010653004 -0.11389667 0.02636707 0.0979525 0.05439707 -0.059114903 0.07068566
-0.12816945 0.055784322 -0.13144983 0.084725924 -0.049427703 0.04571915 0.12337383 -0.044988003
-0.080456346 -0.077379525 -0.042111617 -0.02813523 -0.13999404 0.033382345 0.028475728 -0.040850412
0.10435024 -0.047239877 0.018332785 -0.050011758 0.08571476 0.12550753 -0.13251133 0.010456869
0.0070134215 -0.12462218 0.061856218 0.13912337 0.11418669 -0.09885497 -0.1085498 -0.14066695
0.07660633 0.10147256 0.008762179 0.08825459 0.055238035 0.108231276 -0.0060565025 -0.07348964
-0.018121308 -0.10426318 -0.110731766 0.015306927 0.038948864 0.028252736 -0.05108011 0.03907229
0.091749445 -0.13034847 0.08497919 -0.025465768 0.0064807693 0.11822522 0.020318052 0.017437669
0.01010319 0.10362722 0.056423575 0.060605858 -0.013666673 -0.07325706 0.05631241 -0.022384917
-0.047048412 0.11415538 0.114861324 -0.10852871 0.083834045 -0.052473184 0.11835345 0.07705744
-0.0610866 0.011175018 0.07877725 -0.004178911 -0.009671741 -0.029970862 0.0059693763 0.07443142
0.10341664 -0.038745634 0.10523834 -0.06044661 -0.081796 0.08778965 0.067421205 0.07695669
0.07315467 0.014837006 0.08553208 -0.08643645 -0.12379518 -0.04578028 -0.12164569 0.08580497
-0.02356754 -0.03212374 -0.0039206687 -0.041980878 0.011723231 0.06895147 -0.01862852 -0.015321425
0.09780023 0.058491044 -0.078359455 0.09890745 0.12619993 0.13951302 0.021266846 -0.052808065
-0.026254032 0.07615096 0.055993877 -0.10022179 -0.08219849 0.0049323617 -0.12728426 -0.11917789
0.048603058 -0.072020724 -0.11595251 -0.12155087 -0.1338612 0.0042381017 -0.12860125 0.008560059
-0.041450735 -0.017150346 0.010843019 -0.09336701 -0.08120444 -0.13547823 0.12653367 0.046194248
-0.10751312 -0.012158456 -0.054691 -0.13357665 -0.1127057 0.06253637 -0.083295986 -0.033372987
0.06969521 0.11182793 -0.10450961 -0.027572284 0.022317516 0.042839155 0.10279032 0.025395652
-0.0729871 -0.060482737 -0.014300005 0.037900638 0.03028005 0.030029025 -0.095592715 -0.10396488
00000000: 4faf aebc 7e95 0a3e 5804 a8bd a6a1 35bd
00000010: a6e4 febd fa6e 883d 0b2a 9cbd d38e 093e
00000020: b169 69bd 0eaa 48bd e6a5 3f3a dadb 043e
00000030: 8f5d d9bc d24d 6a3d 8edd a13d 290d e5bd
00000040: 8c7d cf3c 0914 3c3b 4f64 5bbd c352 d63d
00000050: 3a4e f33d e76b 2e3d 88aa dd3d 8c89 46bd
00000060: dbbe 3a3d b167 88bd 9961 8cbd ad5c d9bc
00000070: 5f12 5f3d 7f80 c43c 2257 b03d 56dd 133c
00000080: 1e74 e03d 6e20 383d 6bf0 543c f7ba bebd
00000090: 063d 023d 7a34 02be 814e f03d a618 05bb
000000a0: 2fd3 fb3d f352 08be 8cdd 8dbd bc54 05bd
000000b0: c325 753d d461 003d 4a8f b4b9 6730 d5bd
000000c0: f1cf 02be 3576 08be 9149 643d 2623 a53d
000000d0: 1471 88bd c29a e63c c36f dd3d 8090 9fbc
000000e0: 0e85 9cbd 4341 bb3d 6055 e33d f49d 5dbd
000000f0: cdd7 ccbd e656 bdbb 8751 dcbd 4d19 7eba
00000100: 473a e2bd 42d0 fcbd b49a 263c f620 eb3c
00000110: 3467 82bd 8dea e83d 7167 76bd 8301 ee3d
00000120: 5df0 8fbd 8b8c d23d 98f3 743d a55e b83d
00000130: bd66 5cbc 2822 28bc a0fb 9fb8 294b 13bd
00000140: d52b 81bd 8033 9a3d 1085 abbd 6db7 6c3d
00000150: 0956 06bd c949 983d 5f58 403d 1742 17bd
00000160: 152e 873d f089 2ebc a842 e9bd c1ff d73c
00000170: 529b c83d 76cf 5e3d 7822 72bd a5c3 903d
00000180: da3e 03be 1a7e 643d c99a 06be c984 ad3d
00000190: b474 4abd 0144 3b3d 6bab fc3d 5745 38bd
000001a0: 4cc6 a4bd 2879 9ebd 3b7d 2cbd db7b e6bc
000001b0: 995a 0fbe edbb 083d ee45 e93c c352 27bd
000001c0: 94b5 d53d 9a7e 41bd a32e 963c 21d9 4cbd
000001d0: 388b af3d 0c85 003e 0db1 07be 4a53 2b3c
000001e0: d8d0 e53b ea39 ffbd f25c 7d3d 5b76 0e3e
000001f0: b6da e93d 7974 cabd 5c4f debd ff0a 10be
00000200: c8e3 9c3d d8d0 cf3d 3e8f 0f3c d3be b43d
00000210: 4741 623d 5ca8 dd3d a075 c6bb bd81 96bd
00000220: 2373 94bc ef87 d5bd 56c7 e2bd e8c9 7a3c
00000230: d888 1f3d 4872 e73c 6139 51bd 440a 203d
00000240: 22e7 bb3d 127a 05be 9209 ae3d 969d d0bc
00000250: a25c d43b 1020 f23d 0b72 a63c 71d9 8e3c
00000260: da87 253c 823a d43d 681c 673d d93d 783d
00000270: 2eea 5fbc cc07 96bd d7a7 663d 9360 b7bc
00000280: d6b5 40bd 4cca e93d 6a3c eb3d 4d44 debd
00000290: 2fb1 ab3d 1fee 56bd 4b63 f23d 4bd0 9d3d
000002a0: f135 7abd 6c17 373c f855 a13d 3fef 88bb
000002b0: 3976 1ebc 7485 f5bc c29a c33b 806f 983d
000002c0: 1acc d33d beb3 1ebd 3387 d73d dd96 77bd
000002d0: a984 a7bd 0fcb b33d 2114 8a3d 789b 9d3d
000002e0: 1ed2 953d ea16 733c 712b af3d 9805 b1bd
000002f0: 5488 fdbd 1a84 3bbd 6021 f9bd 84ba af3d
00000300: b710 c1bc 2f94 03bd f478 80bb 24f4 2bbd
00000310: cb12 403c 6e36 8d3d d79a 98bc b706 7bbc
00000320: 7d4b c83d 4e94 6f3d ec7a a0bd fd8f ca3d
00000330: 8e3a 013e 80dc 0e3e cf37 ae3c 454d 58bd
00000340: b212 d7bc 09f5 9b3d d659 653d 1541 cdbd
00000350: af57 a8bd a69f a13b ce56 02be 8a13 f4bd
00000360: 0014 473d 9a7f 93bd 8278 edbd aaef f8bd
00000370: e912 09be c6df 8a3b 0cb0 03be 7d3f 0c3c
00000380: 3fc8 29bd e27e 8cbc eba6 313c 3437 bfbd
00000390: 834e a6bd ceba 0abe 0b92 013e 2e36 3d3d
000003a0: d72f dcbd 4334 47bc ac03 60bd 51c8 08be
000003b0: 3fd2 e6bd 1113 803d 1697 aabd 1db2 08bd
000003c0: 5dbc 8e3d 0b06 e53d 2209 d6bd 45df e1bc
000003d0: 39d3 b63c 1c78 2f3d bb83 d23d 8b0a d03c
000003e0: 437a 95bd bfbc 77bd 914a 6abc b33d 1b3d
000003f0: de0d f83c 6eff f53c 1dc6 c3bd 8aeb d4bd

lstm.bias_ih_l0 f4 [200]
-2.4565434 1.4811274 -2.3250568 -2.4777868 -3.7074506 -2.3232398 -2.4528646 -3.9865308
-2.4382343 -4.062236 -3.6150386 -2.4594812 -2.450396 -2.494401 -2.5550416 -2.4376218
-2.4462912 -2.3766286 -2.4401486 -2.6839712 -2.4191077 -2.7753458 -3.1051688 -2.437447
-2.4720287 -2.3641455 -2.5403204 -2.482075 -2.5415397 -2.415105 -2.499273 -2.4862075
-2.3661315 -2.4402936 -2.507167 -2.6243978 -2.3256645 -2.4365888 -2.4818218 -2.420648
-2.4498963 -2.3724236 -2.5449882 -2.4062304 -2.568334 -2.4244447 -2.339467 -2.3548083
-2.344388 -2.4233813 -0.11557688 -0.10070017 0.031887263 0.030479979 0.12781873 -0.01341278
-0.06408913 -0.064108476 -0.11994736 0.031576723 0.130558 -0.04889316 -0.08866027 0.051597472
0.07395221 -0.032914314 -0.13469666 -0.096542485 0.118037075 0.0008229594 0.11520516 0.008336107
-0.026143793 -0.023683546 0.08534188 -0.07008753 -0.067195974 -0.13690668 0.032051954 0.03476311
-0.06851969 -0.08315602 -0.13275436 -0.059902947 -0.032643024 -0.0961372 0.107735224 -0.016233264
0.010045027 0.018799856 0.061040677 0.13836461 -0.028329292 -0.09117972 0.00038940317 0.016341211
0.02841045 0.12654239 0.08191852 0.010222415 -0.11237102 -1.8211735 0.0044782422 -0.024165673
0.6788983 -0.001461609 -0.032145556 -1.1794004 0.034816038 1.3458581 2.111362 -0.0006582534
0.010881343 0.019729672 0.004641847 -0.051087603 -0.07794119 -0.047775462 0.0062991637 0.068971954
-0.016073631 -0.045769554 -0.042662725 0.0049427613 0.10237656 -0.0033202078 0.0026307362 -0.011680666
0.054641403 -0.006836112 -0.030046714 -0.11024754 0.102558136 0.0050525335 0.072273254 -0.13502891
-0.040886637 -0.06878405 -0.06706234 -0.033914972 -0.00763168 0.021853324 0.023930883 0.062215492
0.0069417325 0.08231791 -0.007942405 -0.010567827 -0.08795605 0.08572793 -2.4748724 -1.0290183
-2.407996 -2.4782195 -3.862532 -2.4989746 -2.3071141 -3.9609208 -2.5804858 -3.9865909
0.14642134 -2.4154623 -2.4841404 -2.298537 -2.435396 -2.5908694 -2.4748054 -2.4646637
-2.4189365 -2.6418624 -2.3793406 -2.8759642 -3.0724435 -2.4800982 -2.3730116 -2.2963374
-2.52294 -2.4310465 -2.5331323 -2.4236753 -2.3290164 -2.451328 -2.4027553 -2.3877318
-2.3124135 -2.861626 -2.4503088 -2.4986355 -2.3929663 -2.4952087 -2.3416462 -2.5092475
-2.4858272 -2.5163763 -2.484929 -2.3735647 -2.4142966 -2.429281 -2.4052951 -2.5960615
00000000: 0238 1dc0 9595 bd3f bbcd 14c0 0f94 1ec0
00000010: df46 6dc0 f6af 14c0 bcfb 1cc0 5223 7fc0
00000020: 080c 1cc0 d6fd 81c0 cb5c 67c0 2468 1dc0
00000030: 4ad3 1cc0 44a4 1fc0 cd85 23c0 ff01 1cc0
00000040: 0990 1cc0 af1a 18c0 652b 1cc0 2fc6 2bc0
00000050: a9d2 1ac0 449f 31c0 16bb 46c0 22ff 1bc0
00000060: b835 1ec0 294e 17c0 9c94 22c0 51da 1ec0
00000070: 96a8 22c0 1591 1ac0 17f4 1fc0 061e 1fc0
00000080: b36e 17c0 c52d 1cc0 6d75 20c0 22f6 27c0
00000090: b0d7 14c0 12f1 1bc0 2bd6 1ec0 e6eb 1ac0
000000a0: 1acb 1cc0 cad5 17c0 16e1 22c0 aeff 19c0
000000b0: 965f 24c0 1a2a 1bc0 d4b9 15c0 2eb5 16c0
000000c0: 740a 16c0 ae18 1bc0 92b3 ecbd e43b cebd
000000d0: 389c 023d 26b1 f93c eae2 023e 47c1 5bbc
000000e0: 2941 83bd 4e4b 83bd f6a6 f5bd 9856 013d
000000f0: ffb0 053e 3244 48bd 8493 b5bd df57 533d
00000100: 4274 973d 29d1 06bd eced 09be 11b8 c5bd
00000110: 6cbd f13d dfbb 573a aff0 eb3d 2b94 083c
00000120: 822b d6bc ff03 c2bc b9c7 ae3d 0d8a 8fbd
00000130: 0b9e 89bd 4431 0cbe e948 033d c363 0e3d
00000140: 0d54 8cbd b44d aabd c2f0 07be cb5c 75bd
00000150: b1b4 05bd 95e3 c4bd 49a4 dc3d 9ffb 84bc
00000160: e693 243c 2802 9a3c ca05 7a3d 74af 0d3e
00000170: d512 e8bc 6fbc babd cf28 cc39 01de 853c
00000180: 08bd e83c 5494 013e e6c4 a73d eb7b 273c
00000190: c722 e6bd 371c e9bf 38be 923b 17f7 c5bc
000001a0: 47cc 2d3f 7693 bfba 0fab 03bd 98f6 96bf
000001b0: 439b 0e3d 1445 ac3f 8e20 0740 a38e 2cba
000001c0: a947 323c 1fa0 a13c a31a 983b 3c41 51bd
000001d0: a19f 9fbd 34b0 43bd 3769 ce3b 2b41 8d3d
000001e0: d9ac 83bc db78 3bbd 1cbf 2ebd e3f6 a13b
000001f0: cdaa d13d d897 59bb 6e68 2c3b 4460 3fbc
00000200: aacf 5f3d 7701 e0bb 8724 f6bc 76c9 e1bd
00000210: 000a d23d b98f a53b 0004 943d 0545 0abe
00000220: bf78 27bd a7de 8cbd fb57 89bd 6dea 0abd
00000230: 2c13 fabb be05 b33c b30a c43c acd5 7e3d
00000240: 7977 e33b 4b96 a83d dc20 02bc ae24 2dbc
00000250: 4d22 b4bd 2092 af3d 4f64 1ec0 dfb6 83bf
00000260: 9b1c 1ac0 269b 1ec0 b933 77c0 33ef 1fc0
00000270: c2a7 13c0 ba7f 7dc0 ae26 25c0 4e24 7fc0
00000280: 7aef 153e ef96 1ac0 28fc 1ec0 3b1b 13c0
00000290: 87dd 1bc0 ced0 25c0 3663 1ec0 0dbd 1dc0
000002a0: dbcf 1ac0 4614 29c0 1e47 18c0 cc0f 38c0
000002b0: eaa2 44c0 eeb9 1ec0 6cdf 17c0 31f7 12c0
000002c0: d977 21c0 4496 1bc0 d71e 22c0 7f1d 1bc0
000002d0: 9b0e 15c0 8fe2 1cc0 bec6 19c0 99d0 18c0
000002e0: 95fe 13c0 e124 37c0 dcd1 1cc0 a5e9 1fc0
000002f0: 5c26 19c0 80b1 1fc0 88dd 15c0 8397 20c0
00000300: cb17 1fc0 4f0c 21c0 1409 1fc0 7ce8 17c0
00000310: d683 1ac0 5779 1bc0 5bf0 19c0 df25 26c0

lstm.bias_hh_l0 f4 [200]
-2.558393 1.4403807 -2.3655045 -2.4548557 -3.7499855 -2.3007553 -2.5032248 -3.9948232
-2.4379513 -3.9725285 -3.7294362 -2.3523393 -2.451425 -2.4614782 -2.3521962 -2.4272282
-2.3708215 -2.3346062 -2.3707461 -2.7893586 -2.5317514 -2.6674075 -3.0518684 -2.4806457
-2.498639 -2.4459012 -2.3127747 -2.2889683 -2.3126469 -2.465099 -2.4524605 -2.3987129
-2.440121 -2.352699 -2.3316891 -2.7258363 -2.3223596 -2.5343747 -2.5536761 -2.428725
-2.4562242 -2.438861 -2.3703017 -2.368745 -2.2939055 -2.6455765 -2.4394355 -2.4065256
-2.476502 -2.4512057 0.10276247 0.10622856 -0.028541865 -0.048063982 0.015823647 0.07855726
-0.033327725 -0.111342624 0.106007874 0.11178338 0.06170582 -0.05472797 -0.0793683 0.032674734
0.09966638 0.12799235 0.10969547 -0.089137286 -0.1072798 -0.07045615 -0.10457994 0.028536672
0.053466585 -0.0341346 0.10455312 0.045287583 0.13319136 0.083277166 -0.082471 -0.111359596
-0.12208852 0.03369858 -0.00087388966 -0.02772027 -0.022225281 0.023392009 0.08206715 0.09928571
0.01757898 0.10486939 -0.082641244 -0.04892342 0.049590506 -0.07401769 -0.019854538 0.07056209
0.045652777 -0.14041784 0.07758091 -0.04978964 0.11237102 -1.9923905 -0.0044782422 0.024165673
0.73612326 0.001461609 0.032145556 -1.2079868 -0.034816038 1.4578357 2.1249056 0.0006582534
-0.010881343 -0.019729672 -0.004641847 0.051087603 0.07794119 0.047775462 -0.0062991637 -0.068971954
0.016073631 0.045769554 0.042662673 -0.0049427613 -0.10237656 0.0033202078 -0.0026307362 0.011680666
-0.054641403 0.006836112 0.030046714 0.11024754 -0.102558136 -0.0050525335 -0.072273254 0.13502891
0.040886637 0.06878405 0.06706234 0.033914972 0.00763168 -0.021853324 -0.023930883 -0.062215492
-0.0069417325 -0.08231791 0.007942405 0.010567827 0.08795605 -0.08572793 -2.3575754 -0.78195155
-2.5051894 -2.4446511 -3.8397257 -2.4819944 -2.5260346 -3.9933045 -2.5189784 -4.1855474
0.08314442 -2.390162 -2.3228095 -2.4765525 -2.4871004 -2.400609 -2.5050566 -2.4397993
-2.5282085 -2.657412 -2.5280085 -2.6198936 -2.9864902 -2.4566119 -2.4956965 -2.4430425
-2.4346168 -2.4603505 -2.3192809 -2.5387802 -2.5650141 -2.4840612 -2.4479432 -2.4225872
-2.516587 -2.8401701 -2.5514474 -2.3170733 -2.5974703 -2.4845495 -2.4845595 -2.5280917
-2.382355 -2.367153 -2.4299064 -2.5460038 -2.3739 -2.417658 -2.4888396 -2.3391125
00000000: b6bc 23c0 655e b83f 6d64 17c0 5b1c 1dc0
00000010: c3ff 6fc0 933f 13c0 d634 20c0 2fab 7fc0
00000020: 6507 1cc0 e83d 7ec0 15af 6ec0 ba8c 16c0
00000030: 26e4 1cc0 dc88 1dc0 628a 16c0 b557 1bc0
00000040: 8abb 17c0 306a 15c0 4eba 17c0 da84 32c0
00000050: 3708 22c0 ceb6 2ac0 d051 43c0 e6c2 1ec0
00000060: b4e9 1fc0 a589 1cc0 8004 14c0 757e 12c0
00000070: 6802 14c0 2fc4 1dc0 1df5 1cc0 8384 19c0
00000080: f12a 1cc0 9f92 16c0 653a 15c0 1a74 2ec0
00000090: 8aa1 14c0 3233 22c0 6e6f 23c0 3b70 1bc0
000000a0: c732 1dc0 4c16 1cc0 06b3 17c0 8599 17c0
000000b0: 59cf 12c0 2051 29c0 b61f 1cc0 8404 1ac0
000000c0: 027f 1ec0 8ee0 1cc0 2175 d23d 5c8e d93d
000000d0: a1d0 e9bc bdde 44bd 98a0 813c a1e2 a03d
000000e0: a782 08bd 9a07 e4bd a81a d93d afee e43d
000000f0: 3ebf 7c3d 702a 60bd d98b a2bd f1d5 053d
00000100: e31d cc3d 6d10 033e 05a8 e03d 9c8d b6bd
00000110: 83b5 dbbd 504b 90bd 022e d6bd bdc5 e93c
00000120: c7ff 5a3d b9d0 0bbd f21f d63d 797f 393d
00000130: 5163 083e 388d aa3d 8ee6 a8bd 8010 e4bd
00000140: 8c09 fabd 8607 0a3d be15 65ba 9f15 e3bc
00000150: cb11 b6bc 99a0 bf3c d212 a83d 4e56 cb3d
00000160: cb01 903c c3c5 d63d d03f a9bd ed63 48bd
00000170: 6a1f 4b3d 9696 97bd fca5 a2bc db82 903d
00000180: 68fe 3a3d b2c9 0fbe bde2 9e3d 39f0 4bbd
00000190: c722 e63d a706 ffbf 38be 92bb 17f7 c53c
000001a0: 9372 3c3f 7693 bf3a 0fab 033d 509f 9abf
000001b0: 439b 0ebd 5c9a ba3f 74fe 0740 a38e 2c3a
000001c0: a947 32bc 1fa0 a1bc a31a 98bb 3c41 513d
000001d0: a19f 9f3d 34b0 433d 3769 cebb 2b41 8dbd
000001e0: d9ac 833c db78 3b3d 0ebf 2e3d e3f6 a1bb
000001f0: cdaa d1bd d897 593b 6e68 2cbb 4460 3f3c
00000200: aacf 5fbd 7701 e03b 8724 f63c 76c9 e13d
00000210: 000a d2bd b98f a5bb 0004 94bd 0545 0a3e
00000220: bf78 273d a7de 8c3d fb57 893d 6dea 0a3d
00000230: 2c13 fa3b be05 b3bc b30a c4bc acd5 7ebd
00000240: 7977 e3bb 4b96 a8bd dc20 023c ae24 2d3c
00000250: 4d22 b43d 2092 afbd 84e2 16c0 fa2d 48bf
00000260: 0655 20c0 2a75 1cc0 11be 75c0 ffd8 1ec0
00000270: 8daa 21c0 4d92 7fc0 f136 21c0 01f0 85c0
00000280: 9f47 aa3d 6af8 18c0 e9a8 14c0 d67f 1ec0
00000290: a72c 1fc0 94a3 19c0 d952 20c0 ac25 1cc0
000002a0: 2bce 21c0 0a13 2ac0 e4ca 21c0 56ac 27c0
000002b0: a822 3fc0 2139 1dc0 7eb9 1fc0 cf5a 1cc0
000002c0: c3d0 1bc0 6276 1dc0 196f 14c0 607b 22c0
000002d0: 3129 24c0 dcfa 1ec0 1aab 1cc0 ab0b 1bc0
000002e0: c30f 21c0 59c5 35c0 ea4a 23c0 ee4a 14c0
000002f0: f43c 26c0 dc02 1fc0 0603 1fc0 41cc 21c0
00000300: 8178 18c0 6f7f 17c0 9683 1bc0 baf1 22c0
00000310: faed 17c0 e9ba 1ac0 2649 1fc0 05b4 15c0

linear.weight f4 [1, 50]
-4.2104494e-37 2.370712 1.1622126e-36 3.9530123e-37 0.7026658 -9.744765e-37 -8.771133e-37 -0.42769372
1.1776787e-36 0.3455366 0.39037186 3.572304e-37 5.4915977e-37 -6.018744e-37 7.305295e-37 -5.5392553e-37
7.316082e-37 -8.843077e-37 -8.8588215e-37 -1.418485e-36 5.8784224e-37 2.6755698e-36 -2.7051146e-09 -5.94948e-37
-6.2334814e-37 2.0817941e-36 -1.2019175e-36 -8.9430805e-37 -5.244797e-37 -4.8453376e-37 8.117203e-37 4.7144756e-37
-2.1900542e-37 1.0297729e-36 -7.3100983e-37 -1.5689455e-35 -8.1545975e-37 6.9975204e-37 -7.6976585e-37 6.992046e-37
-5.26546e-37 -5.0404486e-37 9.504726e-37 9.943273e-37 6.5009953e-37 -7.1795628e-37 -4.5987163e-37 -8.8559085e-37
6.006504e-37 -9.0560525e-37
00000000: 3046 0f83 bfb9 1740 80bd c503 9883 0603
00000010: e8e1 333f 70cc a583 ac3b 9583 acfa dabe
00000020: 245f c803 2cea b03e d2de c73e 501e f302
00000030: 90de 3a03 a8ce 4c83 1896 7803 b87d 3c83
00000040: 10f4 7803 0875 9683 9cb9 9683 bc57 f183
00000050: 4808 4803 c09c 6304 e1e4 39b1 4873 4a83
00000060: 481d 5483 7619 3104 e47e cc83 9c28 9883
00000070: a078 3283 d8e0 2483 681b 8a03 e06c 2003
00000080: 200c 9582 f034 af03 f0bf 7883 c2d6 a685
00000090: 48be 8a83 001d 6e03 08f8 8283 50ed 6d03
000000a0: a02c 3383 8084 2b83 ecb6 a103 102d a903
000000b0: a837 5d03 d04e 7483 787c 1c83 ecac 9683
000000c0: 0864 4c03 ac14 9a83
